src/results/models/MOSI/MOSI_Multimodal_Cyclic_Translation_Network.pt (torch, 812674 bytes, 41 tensors)

weight_ih_l0 f4 [96, 300]
00000000: 7a96 07be 5874 ac3c 2ec9 853d f559 29be
00000010: 5fd7 c6bd 8eab 203d fc27 153d 433a 0b3d
00000020: 22e9 1abe cd67 6c3e 3484 79bd aac7 8a3c
00000030: fa04 003d 4075 42be ff6d 9abc 2aac 5a3b
00000040: 2682 22be e1de b0bc 0d97 45be 9120 1b3e
00000050: 9503 12be c97c 84be df38 3bbe 11ba abbd
00000060: 4280 ab3d 1952 10be e89c 0e3e cfce bbbd
00000070: 6c00 f53d 34b8 ee3d 9c1d 62bd 6025 2f3e
00000080: f33e 1c3d 0a58 bfbc d1a4 3c3c 2dda f5bb
00000090: 89d8 e83c 6351 8dbb 3253 3abd 7914 f63c
000000a0: fb1a 62bd bbc9 4e3e 4a7b 8bbd c719 4b3e
000000b0: e434 5bbd 190c 053b d1f0 493d b84d d2bc
000000c0: 7323 c3bd 8713 21be 8ed4 49bc c465 493e
000000d0: b1c0 403d 4aba 8b3d f480 923d f69c 7abd
000000e0: 5fc9 d0bc cb2a bc3d a3c9 acb9 725d b2bd
000000f0: 4d14 443d 88d5 06bd 5356 743d ac6a 4b3c
00000100: 60ba d9bd 44a7 eebc bd0b 013e d500 073d
00000110: 6ae4 41be 439d 9ebd a54d cbbd 593f f73c
00000120: f019 af3c 1680 8e3d 2d97 c23d 7d31 ec3d
00000130: 1c12 c73d 3553 0bbe 36ac 30be d101 503e
00000140: ca92 a53d 62b2 af3d 35d4 bebd 29a2 8abd
00000150: 9107 c13c 766c f3bd 74dc d4bd 5c6d 073e
00000160: 2fb6 27be 9b7b 633d 713d b1bb d893 32be
00000170: 3be2 b8bd d817 373e ca45 9dbc 391c 8e3d
00000180: 20fc b53c 18c1 673d c875 f2bd a70e ae3b
00000190: 1acd 60be b840 afbd 4024 25be c165 ee38
000001a0: 0024 65bd f0c3 053b 613a 27be 7be5 b93d
000001b0: b447 903d a8fc b23c e9d1 13be 37f6 d93c
000001c0: 6fd5 5fbc 7f34 68be 4952 bdbd 5890 033e
000001d0: 4cde 7bbd 6ca7 3ebd 7178 c2bd 44d9 f63d
000001e0: d2dd df3d 95d1 593e 20f7 1fbe f0cd a2bb
000001f0: 1008 513d 8567 6a3d 8554 ca3c bcc3 883c
00000200: aabf 60bd c223 bc3c 3b4d 553d 1eae 813e
00000210: 6f8c c4bc dc28 0bbe ce20 4e3e 1b69 d8bd
00000220: 46f5 87bd 107c 513e 1061 7c3c 5013 5dbe
00000230: 5aad 9a3d 9497 863d 2a69 193d 5dbc e83d
00000240: c604 d43c 2390 bf3d 6ab3 863c bc7a 083d
00000250: d980 e6bd 5d84 00be 71f0 a9bd 75c8 733c
00000260: 4ec2 64bd 182b 4f3d 8445 03be cfa8 933d
00000270: 4d9c 74bb 70b3 4b3e 6e24 573e 1e2c a73d
00000280: 3322 363d 8afd c93c ce6d 29bd bdd1 033e
00000290: 81be 733c 8b36 f7bd 0cc7 d23d 8686 bfbd
000002a0: ad13 203e 47b9 84bb 09a0 eebb 15e8 5bbe
000002b0: 9fe1 f83d d7d2 933d 19fc 08be c280 f8bd
000002c0: 0cb0 68be 66b2 8e3d 1aa9 5e3e c4ca 29be
000002d0: 067c 8f3d 7397 c63d 0e18 e83c 46a1 abbd
000002e0: 5348 2ebe 4782 95bc 090e bcbd 4986 563e
000002f0: 5a99 dabd ee65 033e 27d7 16bd ae12 55bc
00000300: 55ed 05bd 829f 4cbd b1e4 08be 4c6b 11bd
00000310: 3cf1 7ebd a25f 9dbd c124 26be 3360 2abe
00000320: 707b 60be 4fbf ddbd be40 8dbe 9093 323e
00000330: b632 243e b23e 3f3e 700f 303c 3144 2d3e
00000340: d5f1 e43d 382b 383e 1dd1 d0bd a389 6e3e
00000350: e994 a33d ff84 e2bd 6f2f 8f3d f438 a43d
00000360: 4180 613d afc2 5abd f8a3 2abd bfb2 dfbd
00000370: dbc2 30be 507c 57be fe09 953d ca60 bb3d
00000380: 7910 f33d 39aa 2f3e e5f7 27bd af7f a23d
00000390: 6bd1 003d f18f 573d 9b26 a53d 5a85 95bc
000003a0: f747 d5bd 4a8c 0fbd 26d9 bb3d d4f8 113e
000003b0: f7e6 1f3e f0f5 6c3e 9252 d1bd e417 433e
000003c0: 426b c0bd f55e 82bd 1e7c 6abd c061 22bd
000003d0: fa25 51bd 59d4 b2bd 0f49 aabd 3e94 20be
000003e0: 4db2 e7bd 1307 6ebe a874 62be 7ba2 bfbd
000003f0: a6ea 1abd 2626 933c a53f 77bd e509 003e
-0.13240996 0.02105157 0.065325126 -0.16538222 -0.097090475 0.039226107 0.036415085 0.03399111
-0.15127996 0.23086472 -0.060917094 0.01694091 0.031254746 -0.1899004 -0.018851278 0.0033366778
-0.1586996 -0.021590652 -0.19295903 0.15149142 -0.14259179 -0.25876454 -0.18283413 -0.08385099
0.083740726 -0.14093818 0.13927042 -0.09170305 0.11962971 0.11656228 -0.05520402 0.17104101
0.03814597 -0.02335741 0.011513905 -0.007502815 0.028423565 -0.0043126806 -0.045489497 0.030039059
-0.05520151 0.20194142 -0.06810625 0.19834052 -0.053517237 0.00203014 0.049301926 -0.025671825
-0.09528246 -0.15730105 -0.012318743 0.19667727 0.047058765 0.06822641 0.07153502 -0.061184846
-0.025486646 0.091878496 -0.00032956628 -0.087092295 0.047870923 -0.032918483 0.059652638 0.012415569
-0.10631251 -0.029132493 0.12602134 0.032959778 -0.1893479 -0.07744839 -0.09926919 0.030181574
0.021374673 0.06958024 0.09501491 0.11532877 0.09720251 -0.1360596 -0.17253193 0.20313193
0.080846384 0.08578946 -0.09317819 -0.06769211 0.023563178 -0.11885922 -0.103936106 0.13225311
-0.16378091 0.0555378 -0.0054089357 -0.1743921 -0.09027525 0.1788019 -0.019198317 0.06938977
0.02221495 0.056580633 -0.11838871 0.0053118053 -0.2195324 -0.08557266 -0.1612711 0.000113676775
-0.055942535 0.0020410977 -0.16330864 0.09076973 0.07044926 0.021848992 -0.14435543 0.026606662
-0.013661726 -0.22676276 -0.0924421 0.12848032 -0.061491296 -0.046546385 -0.094956286 0.12053159
0.10930981 0.21271355 -0.15621614 -0.0049683973 0.05103308 0.05722763 0.024698505 0.016694896
-0.054870285 0.02296627 0.052075606 0.25328153 -0.023992745 -0.13589805 0.20129701 -0.10566922
-0.06638579 0.20457482 0.015404001 -0.21589398 0.075525954 0.0657188 0.037453808 0.113640524
0.025881182 0.09353664 0.016442973 0.033320174 -0.112550445 -0.12550493 -0.08297814 0.014879336
-0.055849366 0.050578207 -0.12819487 0.07209932 -0.0037324608 0.19892669 0.2100999 0.081627116
0.04446621 0.02465703 -0.041364484 0.12872978 0.014876963 -0.1207095 0.102918714 -0.0935183
0.15632506 -0.004050407 -0.0072822613 -0.21475251 0.12152409 0.07217949 -0.13377418 -0.121339336
-0.22723407 0.069676206 0.21744195 -0.16581255 0.070060775 0.096968554 0.028331783 -0.0838037
-0.17019777 -0.018250598 -0.091823645 0.20949663 -0.10673781 0.12831852 -0.03682628 -0.013004942
-0.03269704 -0.049956806 -0.13368489 -0.035502717 -0.062241778 -0.07684256 -0.16224958 -0.1663826
-0.21922088 -0.10827505 -0.27588457 0.17439103 0.1603497 0.1867626 0.010745868 0.16920544
0.11178938 0.17985237 -0.10196135 0.23294692 0.07987387 -0.11060523 0.06991469 0.080186754
0.055053953 -0.05340832 -0.04166028 -0.10922765 -0.17261831 -0.21043515 0.072772965 0.091493204
0.11868376 0.17154779 -0.041007895 0.0793451 0.031449717 0.052627508 0.08064004 -0.018252064
-0.10414117 -0.0350459 0.09172277 0.14255077 0.1561545 0.23140693 -0.10220827 0.19052082
-0.09395458 -0.06365768 -0.057247274 -0.039644003 -0.051061608 -0.08731908 -0.08314716 -0.1568155
-0.11313305 -0.23244886 -0.22114813 -0.093571626 -0.037821434 0.017962527 -0.06036343 0.12503774

weight_hh_l0 f4 [96, 32]
00000000: b5b4 0b3c 5843 e43d 3f34 51be fe8b c3bd
00000010: c11a b1bc 4a61 53bd 2694 55be e927 a93d
00000020: 7b86 25bd 855e dcbd 8b9d 823d bb2f f23d
00000030: 759b c5bd 3e70 df3d 0ddb a23d 9982 dabd
00000040: 9a5c 2a3e ca38 b33d d526 51be fa9a 2bbc
00000050: 330e cbbd 853c 893e 6981 c3bd 71e8 073e
00000060: 0bf3 f73d c95e c1bd 3c7c cc3d 3021 e23d
00000070: ab20 afbd 4936 cc3b 28dd a93d 5dc4 c0bd
00000080: 148f 39be 8c81 c43d e627 4a3d dee4 07bc
00000090: 0fd2 36be 932c 5b3d cec2 313c bb1c 863d
000000a0: 881e 81bd 0a95 213e dfd8 523e 7955 cd3d
000000b0: 4bcf 383e 0e8e dc3c 5210 2ebe adee 9abc
000000c0: bbbf e8bd 929f 34be 9a53 6abc 6042 9abd
000000d0: ac13 383d 53f7 983d 2be9 07be 0e9f e8bc
000000e0: 59d7 e03d 5184 cabb 2f86 1a3e 1597 96bc
000000f0: 74e6 b03d 72cc d93d ea56 75bd 80ca 11bd
00000100: 0898 3fbe c890 69bd 363a 163e 3d81 1bbe
00000110: aeb8 2e3d 25d9 45bb f0ba 76bd b767 533e
00000120: 01e3 bb3d 8e38 1abe 16e8 e93a d0a6 563e
00000130: 13de 4f3b ffe2 4d3d 1cb9 07be 7714 bc3d
00000140: 25a3 29be 9bae b2bd 0aaf 8ebd ffb0 793c
00000150: ae38 5cbd 2ac2 27bd 70db 43be 5bd6 f83d
00000160: 75bd e4bd 08ef 00be 61dc 593c b417 a5bb
00000170: 25ad 063d a79c 7fbd 1157 083e bce0 99bd
00000180: ee2d 0fbd f391 f03c 563c 7dbd 346d 1a3e
00000190: 9253 56bd 39ec fb3c ae14 0b3c 292d 463e
000001a0: 1f90 aabc b4cf 213e 74a0 73be 20cf 233e
000001b0: 947b 96bc ed46 2dbe 0ef6 2a3e 20a4 c73d
000001c0: 15cd 323e b8e8 a3bd e7e6 963d ac0a 85bc
000001d0: 7c85 d93d 4553 9e3d eebb f4bb 5be7 f2bd
000001e0: 9628 fbbd 3eec 643c e26a 7bbd 5f3b b7bd
000001f0: fc32 cfbd 3b22 583d 69db 10be af9d 953c
00000200: 7812 50be 656e 28be 24e1 f9bd 36dd c1bd
00000210: b7f5 5e3e e448 843e 5615 543e ba78 403e
00000220: 7f81 433e 46f4 debd 2ddd 253e e989 143e
00000230: 2438 6fbd ce97 a13c 4e02 623e a7ad fabd
00000240: 363d db3d c7f6 c3bd f730 023e d64e 4dbe
00000250: 8973 613e d894 ffbd 55c4 3b3e 751b 733e
00000260: 2f97 553d 3ba7 b83c 7be9 a53d 4637 bebc
00000270: 6984 a73d bd23 2e3c c270 0fbd 2bfc 403e
00000280: aa3a a2bd 88f8 bbbc dcae 97bd bdd0 9c3d
00000290: d245 74be a8b0 103e f28d 8fbe fab6 8c3b
000002a0: fbaa 24bd 3812 efbb d124 163e 0a71 bfbd
000002b0: 70e3 17be 664d f6bd d2cb c9bb 3b15 19bd
000002c0: 6e13 93bc 89f1 193d 98a8 5cbd caa1 a9bd
000002d0: b653 ac3c 0729 f4bd 4198 bb3d e139 683c
000002e0: 4ac7 063e e0a4 9a3c b681 0bbe ccad 983d
000002f0: 7a02 eabd 2070 0a3d 4d29 303d 5422 30be
00000300: b1e1 23be 0001 663e a928 1dbe 3680 f8bd
00000310: 329f 17bd 9262 19be 2d09 1bbe 49fc 4d3e
00000320: 7e6b 57bd c94a 6dbd bdf7 223e 0e6d 273c
00000330: bc75 a13d 7866 b2bb 3a39 e6bd 7faf c63c
00000340: 6b41 67bd 1533 45be d305 343d 6347 9c3d
00000350: 2b22 c83d b470 5bbd 4fc9 aabd 6fa3 dc3c
00000360: 147d 413e 4715 ec3d a096 f9bd 7d54 313d
00000370: 05e1 5fbe a9b8 df3c 7e14 e9bd 645d 04be
00000380: 6ed4 70bc 0756 393d 4d1e a4bd 2ae9 993d
00000390: a74c b23d 71e0 543e 07fd b6b8 fa77 603e
000003a0: 7341 e1bd 5552 123e 6edc b23c 84c7 18bd
000003b0: c6af c63d 5d6a 243e 155c 86bd 2e78 59be
000003c0: 6a0c 553b 3eb7 25be 0c1d 2a3e 1e21 ebbc
000003d0: 45ca 02be 3db6 a23d ff4c 823e fd6b 1f3d
000003e0: 1456 463e 8bf5 bcbc 66f4 143e d450 e8bd
000003f0: a1e0 17bd 8f5f 94bd 1cd7 d53d 9237 61bd
0.008526971 0.11145657 -0.20430087 -0.09548186 -0.021619203 -0.051606454 -0.20857295 0.082595654
-0.040411454 -0.10760216 0.06377705 0.1182551 -0.09648792 0.109100804 0.07951937 -0.10669441
0.16636887 0.08751066 -0.2042497 -0.010473961 -0.09914818 0.26803985 -0.095461674 0.13272263
0.12106904 -0.09441907 0.09984633 0.11041486 -0.08551153 0.006232057 0.08294135 -0.09412453
-0.18120986 0.095950216 0.049354456 -0.008294312 -0.17853568 0.053509306 0.010849668 0.06548449
-0.063046515 0.1577951 0.20590542 0.10026068 0.18047826 0.026923206 -0.16998413 -0.018912638
-0.11364695 -0.17638996 -0.014302159 -0.07532191 0.044940636 0.07469048 -0.1327254 -0.028396156
0.10978574 -0.006180324 0.1509025 -0.018382588 0.086377054 0.10634698 -0.05989734 -0.03559351
-0.18710339 -0.05702284 0.14670643 -0.15186019 0.042656593 -0.0030189243 -0.06023687 0.20645033
0.09174157 -0.15060636 0.0017845656 0.20962071 0.003171806 0.05026531 -0.13254207 0.09183591
-0.16566141 -0.087247096 -0.0696698 0.015239953 -0.05376499 -0.040956654 -0.19126678 0.1215026
-0.111689486 -0.12591183 0.013297171 -0.005038226 0.032879967 -0.062405255 0.13314463 -0.07513568
-0.03495591 0.029366469 -0.06182512 0.1508072 -0.052325793 0.030752288 0.008488817 0.19353165
-0.020820675 0.15801889 -0.23791677 0.1599698 -0.018369474 -0.16921587 0.16695425 0.09748101
0.17461045 -0.08003372 0.0736826 -0.01624044 0.10621163 0.07730726 -0.007468692 -0.11860534
-0.122636005 0.01397234 -0.06138123 -0.08946871 -0.101171464 0.05276702 -0.14146198 0.018263666
-0.20319545 -0.16448362 -0.12201145 -0.09466021 0.2177342 0.2583686 0.20711264 0.18796054
0.19092368 -0.10886435 0.16197653 0.14505734 -0.05840315 0.019725706 0.22071192 -0.12240153
0.107050344 -0.095685534 0.12713991 -0.20049605 0.2201673 -0.124795616 0.18336613 0.23740943
0.052146133 0.02254068 0.081011735 -0.023219716 0.08179552 0.010628638 -0.035019644 0.18846194
-0.079213455 -0.022945657 -0.07406399 0.07657001 -0.2385476 0.14129889 -0.28037983 0.0042942734
-0.040202122 -0.007295873 0.14662482 -0.09347732 -0.14832854 -0.12026481 -0.0061583305 -0.037373763
-0.0179536 0.03758386 -0.05387172 -0.08282812 0.02103601 -0.11921888 0.091598995 0.014173956
0.1316196 0.018877447 -0.136237 0.07455024 -0.114262536 0.033798337 0.043008137 -0.17200595
-0.16004063 0.22461319 -0.15347542 -0.12133829 -0.037017055 -0.14979008 -0.15140219 0.2011577
-0.052592747 -0.05793265 0.15914817 0.010218872 0.07883784 -0.005444344 -0.11241384 0.024253605
-0.05645887 -0.19257767 0.043950867 0.076308034 0.09772142 -0.05357428 -0.08339178 0.0269334
0.1889537 0.11527496 -0.121869326 0.043293465 -0.21863182 0.027309733 -0.11380862 -0.1292625
-0.014699085 0.045248058 -0.08013592 0.07515176 0.087060265 0.20788743 -8.725566e-05 0.21920767
-0.109988116 0.1428922 0.021833625 -0.037299648 0.09701495 0.160562 -0.06560532 -0.21237251
0.003250862 -0.16183183 0.16612643 -0.028702315 -0.12772472 0.079449154 0.25449368 0.038921345
0.19368774 -0.023066303 0.14546356 -0.11343542 -0.037079457 -0.07244789 0.104414195 -0.054984637

bias_ih_l0 f4 [96]
00000000: 9be0 3d3e f85c ba3d 9063 14bd 5749 ae3b
00000010: 45c2 613e b031 f23d 4b59 593e d76d ea3d
00000020: 3429 0f3e f7ee 8c3d 5f96 22be e5d0 853d
00000030: 4e6d a53a 1279 053e 2e61 00be 93f2 efbc
00000040: 552b 67bd 15f8 293e 63a8 093e 620e 2cbd
00000050: 849c 06be 5f07 b93d c3ad eb3d 60fb 2abd
00000060: 858a fabc 502a fb3d 0e5d 083e 8db4 c9bd
00000070: 0936 67bd 3168 12be de75 353e c2f8 dabd
00000080: 889c cebd 9c5e bc3d bb8a 2a3e 2833 c33d
00000090: d3ac 61be c852 6d3d 07d2 69be bea7 83bd
000000a0: 4f47 ec3d e489 03be c39b 5f3e 07fc 0abe
000000b0: 1120 b7bc e1e1 43be 58e9 1fbc a2ec d2bd
000000c0: b2c0 193e 3ffd 02bc 25e6 4e3c 0ccf 613e
000000d0: 4876 a43d 6a46 92bd 81d1 e8bd 69b9 a9bd
000000e0: 45fb 7dbc eeae 8a3d 9f47 0abe 204f 2abe
000000f0: f4aa fc3a 9191 343e 66bd 0fbe 249e 293d
00000100: 63f4 f43d 078e 35be c404 03be 5e4d 27be
00000110: 92f9 e03d f18a 683d 350f 87bd bd0f f2bd
00000120: 785f 103e 505e f73d 184b dd3c 8ec4 0d3e
00000130: 3418 c5bd a061 ae3d fb4d c73b e4e0 073d
00000140: 99ef 143e 5bc7 e93c e1a3 14be fec5 b73c
00000150: e151 26be 5264 a73d f913 38bd 293a 4b3d
00000160: bf75 273d fa58 06be 8746 19be ecf9 8dbd
00000170: 62c5 8abd 3818 ca3d 5ea3 1e3e 7125 c4bd
0.18542711 0.09099764 -0.036227763 0.0053188014 0.22046764 0.118258834 0.21225469 0.114467315
0.13980561 0.068815164 -0.15877675 0.06533984 0.0012621076 0.13034466 -0.12537071 -0.029290473
-0.05643781 0.16598542 0.1344314 -0.042005904 -0.13145643 0.09034609 0.11507752 -0.041743636
-0.03058363 0.1226393 0.13316748 -0.098488905 -0.056448016 -0.14297558 0.17720744 -0.10691978
-0.1008845 0.09197733 0.16654484 0.09531242 -0.22038583 0.057940274 -0.22834025 -0.06428479
0.115370385 -0.1284557 0.21836762 -0.13572703 -0.022354158 -0.19129135 -0.009760223 -0.102990404
0.15014914 -0.007994949 0.012628113 0.22051638 0.08030373 -0.07142337 -0.11368085 -0.08287317
-0.015501802 0.067716464 -0.13503884 -0.16631746 0.0019277022 0.17633654 -0.14037094 0.04141058
0.119606756 -0.1772996 -0.12794787 -0.16338107 0.10985102 0.05677313 -0.065946974 -0.11819408
0.14098918 0.120785356 0.027013347 0.13844511 -0.09623757 0.08514714 0.006082294 0.033173457
0.14544524 0.028537443 -0.1451564 0.022433277 -0.16242172 0.081734315 -0.044940922 0.049616013
0.040883776 -0.1311988 -0.1496831 -0.069324344 -0.06775929 0.098679006 0.15492007 -0.09577454

bias_hh_l0 f4 [96]
00000000: 7929 b5bd 5d23 8dbd c6b9 16be e0b5 f23d
00000010: d4f3 0dbd 4885 83bc f94d 7e3e 6150 66bd
00000020: 4fcd 1abd 2d5b 35bd 7c33 2abd 81fa cdbd
00000030: 1daf 253d b161 c03d ab7c dbbd 4ffb 37be
00000040: 05b4 b5bc c8c2 fbbd 5f86 debd 463a b63d
00000050: f72f be3b 3a80 403c 646e fb3d 5a06 1abe
00000060: 95a4 29be 3e66 143e dce4 d63b ef18 a8bd
00000070: cd9e b3bd ce29 94bd 27fa 78bd cf6e 9e3d
00000080: faa2 1cbc 840f 093c cb8b 233e 58ff 7c3d
00000090: 8611 cc3d 8d2b 21be 905e 473d d9d8 f9bc
000000a0: bdc9 843e df9c c63d 4d55 e83c 7038 3abe
000000b0: a914 cbbd fb60 48be 7bc7 493d dd51 183e
000000c0: 82bc 3f3e 2255 08be 4cbd 1fbe 13f3 c6bd
000000d0: 1975 02be 46e7 40bd 1b4b 54be 7c36 b43d
000000e0: 6fd7 fbbd df69 8dbd c1bd 0d3e e19b fb3d
000000f0: 0413 97bc c828 16be 53f1 acbd fa68 d8bd
00000100: a6fc a43d 0aef ca3d 5aa9 063e 1577 363e
00000110: d93f bb3d eda3 af3d 7051 303d 644e 873d
00000120: e028 71bd 2c51 113c 3a62 c9bd 6102 51be
00000130: d6f8 0bbe df99 0d3e 560a 1ebe 2b47 dcbd
00000140: becc 09be c650 323c 0674 0a3e 8445 a7bc
00000150: 4ad1 083e 6d65 1d3e 434f 313e 4ef5 1f3e
00000160: 2408 0fbe 8d14 d8bd 8c93 463c 9d57 83bd
00000170: 7e06 cbbd bb7d c53d 18a4 183e 3bcb 103e
-0.08845801 -0.06891511 -0.14719304 0.11851096 -0.03465636 -0.016054764 0.24834432 -0.056229
-0.037793454 -0.044276405 -0.041553006 -0.100575455 0.040450204 0.09393633 -0.10717138 -0.1796696
-0.022180567 -0.12293011 -0.10865473 0.088978335 0.0058040577 0.011749322 0.12276915 -0.15041485
-0.1656669 0.14492127 0.006558044 -0.08207881 -0.08770523 -0.07234536 -0.06078544 0.07735979
-0.009560341 0.008365516 0.15971296 0.061766952 0.0996428 -0.1573927 0.048674166 -0.030498909
0.25935164 0.096978895 0.028360987 -0.18185592 -0.0991605 -0.19568245 0.049262505 0.14874978
0.18724254 -0.13313726 -0.15599555 -0.097143315 -0.12739982 -0.04709556 -0.20731775 0.087994546
-0.1229695 -0.06904959 0.13841917 0.12285591 -0.018441685 -0.14663994 -0.084444664 -0.10566898
0.08056001 0.09908874 0.1315054 0.17818864 0.09143037 0.08576188 0.043046415 0.06606749
-0.058876872 0.008869451 -0.09833188 -0.20411064 -0.13669142 0.13828228 -0.1543363 -0.10755762
-0.13457009 0.010883516 0.13520822 -0.02041889 0.13361087 0.15370722 0.17315392 0.1562092
-0.13967949 -0.10550795 0.012120139 -0.06413195 -0.09913348 0.09643122 0.14906347 0.14140026

weight_ih_l0_reverse f4 [96, 300]
00000000: 9a30 c03d dbf1 043c 4cc4 2ebe 70f6 753d
00000010: ccdb 223e fac2 12be b706 89bd c8fb acba
00000020: 75e7 8cbd 26b6 ed3d aa94 1abe 0c0b 353d
00000030: c69a f73d b0fa 31bd 9561 b5bc d3ab 88bd
00000040: e47e db3d b83e 483d 7a74 fbbd 531a 93bd
00000050: 2368 273e 9022 2abc 9329 9b3c 74f9 82bd
00000060: cff6 1abe fc68 84bd a411 fc3c 6eb4 e7ba
00000070: 8863 c13d 206c 34be 8b61 94bd 38f2 5cbd
00000080: ed71 2b3e 103c 973b 20b1 193e 39e7 d0bc
00000090: 59fb 013e ced7 833d faca b6bd 67dc ac3d
000000a0: 7552 cbb9 0c50 723c 3dc2 0a3e 0ec7 39bd
000000b0: af04 20be 8cf7 493e ec37 263e 49a3 453e
000000c0: 2f68 aa3d f9d5 e23c bd12 57bd 8072 873c
000000d0: 9560 7a3e 53ca aabc 2f77 433e ba67 a0bd
000000e0: c543 b13d f608 27bd d92f dabd 82e8 0bbd
000000f0: 82cc 09bd dd65 ed3d f32d 073e e0a5 c53d
00000100: 82f5 113e 75c5 0cbe 2ed7 01be d651 0bbe
00000110: 73b9 22be d1ad 8f3c 65d8 95bd de2c e73d
00000120: 7608 b33d 4041 133e 73a7 403c bfb5 673d
00000130: ad6c 313e 973b 55be 4465 0a3d 5d12 2bbd
00000140: 60bf 1cbe 82fe 5abc f679 39bc 1d87 663d
00000150: d696 303c 8505 913d a004 c73d cca7 313e
00000160: 776b fbbc b833 b4bd 67b7 0e3e 0513 313d
00000170: f256 ecbd feb0 85bd e090 edbd b68b d63b
00000180: 0c61 0f3e 6045 95bc e824 083d fa59 82bd
00000190: c527 703b a18b 3c3d f97b 2ebe 9e56 903d
000001a0: c7c2 d73d 84a1 2ebe dbe4 edbc f299 013e
000001b0: 8835 c13d aedf 25be e683 80bd 68fc 06be
000001c0: 4e44 1b3e 65da 443d 2fe8 423e a865 debd
000001d0: 66d9 2dbe c81f 98bd 96e2 dc3d 31c9 833d
000001e0: 1642 103e 08ab 38be 7b1a 263e f046 85bc
000001f0: 1fd1 c0bd aac8 f63d daf4 b4bd fceb 5e3d
00000200: 340a e03c 21a1 0b3e e324 0ebc d750 3fbd
00000210: bc63 60be f26a 1b3e 7e0d c33d 1759 1e3e
00000220: a2a8 dfbd acfc 133e da37 4bbc a772 2bbe
00000230: bacc fcbd c057 083e ba6b 2c3e 5567 a4ba
00000240: 7142 babd 53b7 823d 61bb 283e af80 8d3d
00000250: d31e d33d f7d0 2ebe f1a1 e4bd 5105 f9bc
00000260: 82a8 c43d f544 623d d3ea c7bd 3663 f23d
00000270: 511f cabd 5f8b 493e e33d 52be f2b0 913d
00000280: 0e36 0cbd 37c8 bd3c 31f7 15be 7d65 b23c
00000290: ef90 2f3e f961 073e 76ea 97bc a2fe e93d
000002a0: 0a0d fdbd 406a 133e 6b5a 623d 5457 1bbc
000002b0: ee36 98bd 7f08 df3b d24f a3bc f7aa b0bd
000002c0: 1666 26be c086 ddbd 5855 93bc ba3a 6a3d
000002d0: 6849 993d f842 e1bd 4852 013d ce6a 3f3e
000002e0: d711 193d 2e96 1abe 45bf 9a3d 7724 a33d
000002f0: b132 0d3d 5c80 0dbe 7a7b e63c cba9 4cbd
00000300: a965 473d b13c 013e 6f62 3e3e 464f c1bd
00000310: 9325 bbbd ec3a b1bd 747e 3d3e 75fd c0bd
00000320: 4a81 d3bd 08e7 43be 041c 293e 8270 7ebd
00000330: 284c e7bd 2042 1b3d 62a8 24bd 7e97 17bc
00000340: 0af5 38be e75d 333d 822c e9bb 27f9 5dbd
00000350: 7fc5 323d a050 5a3c 88c3 80be 9876 ebbd
00000360: 9933 47bd a48b 313e 2fc1 ed3d 3352 8b3c
00000370: ac6a f8bc f8ff 10be 2759 c5bd ad36 b9bd
00000380: 1fba ebbd 0cf4 71bc a7a4 b2ba 5c9c 02bd
00000390: b195 12bc e69a efbd 886f cd3d b70f 49be
000003a0: a41f 61bd 65c0 123e 4773 b73d 7a3c 143e
000003b0: fba3 cfbd ab60 983d 302d 123e 1693 93bd
000003c0: abe4 353e 4848 3e3d 58d2 06be f544 d63d
000003d0: 32a3 f53d 5e5a 163e c9fa a1bd a27b 0bbe
000003e0: cd14 0d3d bcfb 243e 5c40 863d b799 41bd
000003f0: 9e2f d5bd 9442 babd 8369 cabd 44a2 89bc
0.0938427 0.008114303 -0.17067069 0.060049474 0.15904158 -0.1433219 -0.06690734 -0.0013197595
-0.068800844 0.11607008 -0.15095773 0.04419999 0.120900676 -0.043451965 -0.022141257 -0.06673398
0.10717562 0.04888794 -0.122780755 -0.07182755 0.16348319 -0.010384217 0.018940723 -0.06395236
-0.15133213 -0.06465337 0.03077013 -0.0017677674 0.09442812 -0.17619371 -0.07245167 -0.053941935
0.16742678 0.0046153143 0.15008974 -0.02550088 0.12693538 0.06437646 -0.089254335 0.08440476
-0.00038780613 0.0147895925 0.13550659 -0.04535585 -0.15626787 0.19723338 0.1623227 0.1930057
0.08320653 0.02768992 -0.052508105 0.01653409 0.24450906 -0.020848429 0.19088434 -0.07832284
0.08655504 -0.04078003 -0.106536575 -0.034157284 -0.0336423 0.115916945 0.13201122 0.09650779
0.1425381 -0.13747199 -0.12679741 -0.13605437 -0.15891056 0.017538937 -0.073166646 0.112878546
0.08741848 0.1438036 0.011758673 0.05656981 0.17326613 -0.20823513 0.03378798 -0.04176556
-0.15307379 -0.013366343 -0.011320582 0.056281198 0.01077815 0.07081131 0.09717679 0.17349166
-0.030690892 -0.08798927 0.1393715 0.04323103 -0.11540021 -0.06527899 -0.11599898 0.0065474166
0.14001864 -0.018221557 0.03323832 -0.06364818 0.0036644798 0.046031598 -0.1703948 0.07047771
0.10535198 -0.17053801 -0.02903979 0.12656382 0.094340384 -0.16198608 -0.06275158 -0.13182223
0.15162775 0.04805984 0.19033884 -0.10859233 -0.16977462 -0.07427937 0.10785405 0.064348586
0.1408771 -0.18033993 0.16221039 -0.016269177 -0.09414887 0.120499924 -0.08835764 0.05442427
0.027348615 0.13635685 -0.008675787 -0.046707954 -0.21913046 0.15177515 0.09524058 0.15463673
-0.10920836 0.14451855 -0.012403453 -0.16742955 -0.12343736 0.13314724 0.1683797 -0.0012543002
-0.09094704 0.063826226 0.1647773 0.0690931 0.10308614 -0.17071901 -0.111637 -0.030398043
0.09602453 0.055241544 -0.09761586 0.11835329 -0.098692544 0.19682072 -0.2053142 0.07113828
-0.034231238 0.023166759 -0.14645077 0.021776909 0.17145132 0.13220967 -0.018544417 0.114255205
-0.12356003 0.14396 0.05526201 -0.00948127 -0.07432352 0.0068064327 -0.019935522 -0.08626359
-0.1624988 -0.10816717 -0.017985031 0.057184912 0.07484704 -0.109991014 0.03157261 0.18693087
0.03737053 -0.15096352 0.07556013 0.079659395 0.03447217 -0.13818496 0.02813505 -0.049966615
0.048680935 0.12620808 0.18592237 -0.09438948 -0.09138026 -0.086538166 0.1850527 -0.09423343
-0.10327394 -0.191311 0.16514593 -0.062119015 -0.112938225 0.03790486 -0.040199645 -0.009252427
-0.18062225 0.043790724 -0.0071159014 -0.05419269 0.04364538 0.013324887 -0.25149179 -0.11497229
-0.04863319 0.17338425 0.116091125 0.01700697 -0.030324303 -0.14160144 -0.09636145 -0.09043632
-0.11510109 -0.014767658 -0.0013629392 -0.031887397 -0.008946822 -0.116994664 0.100310385 -0.19634901
-0.054961815 0.14331205 0.08957534 0.14476195 -0.10138699 0.07440313 0.1427505 -0.07205789
0.17763011 0.04645565 -0.13166177 0.10462371 0.11994018 0.1468291 -0.079091616 -0.13621381
0.034443665 0.16111654 0.06555244 -0.047265735 -0.10409473 -0.0909473 -0.09883406 -0.016801007

weight_hh_l0_reverse f4 [96, 32]
00000000: 47cf b1bd c43a ac3d 6e31 f83d 2ffd 7d3c
00000010: 6be3 05be 1812 b93d ad07 263b c6e9 15ba
00000020: 68ec ec3d 92aa c9bd b098 b5bd 4a67 aabb
00000030: 62e3 c83d 943f 1c3e 4eab f8bc 9e51 c63d
00000040: 6c5b 583c f06f 24be b703 003e 93d2 683c
00000050: 0eed 293e db76 a13d ddba 243e e6ec 33be
00000060: 6e68 1e3e a9f0 6d3e c5f5 afbd 0db1 133e
00000070: beb7 543c 62f5 2b3e 4a88 d0bd f480 583e
00000080: 7ed2 173d 3c07 38be 8ea8 72bc a4b4 2c3e
00000090: 2583 53be 989f 7ebd 82bd d5bd 96b6 4c3e
000000a0: 8b86 37bd c3e2 e23d 2085 453e 0a6e f2bc
000000b0: 79f9 dfbd aa35 373e 5ef4 b9bd e264 b8bd
000000c0: 382c 1dbe 8cfe 04bd a9c0 24bd 1ce7 d43d
000000d0: 45a7 863b b045 2b3d 61b2 3f3e 547d 743e
000000e0: e058 cabd d026 02bd 8ae7 45be ffb6 3bbe
000000f0: f6ce d3bd dfef f7bd 1d65 2abd 8253 a9bc
00000100: 9d93 733d 7991 04be 1bfc 9d3d 166c 423e
00000110: 7990 e33c febb 1c3e 9729 25bd bc0a 0cbe
00000120: 4db8 1cbc dedd 92bd f425 7fbd 0657 d0bd
00000130: 92c9 b93b 2b25 57bc 99de 02bd 5bf7 55bd
00000140: 3fce 2d3e 7905 2dbe 5f6f 013e 0faa 9dbd
00000150: d25e 293d d276 0e3e f167 fa3d 4475 99bc
00000160: 82f5 9b3d 7e89 0c3e 8008 2a3d 712c b3bd
00000170: 2701 943d 3f42 abbd bfaa 4dbe 85e9 983d
00000180: d3e7 46be 8b09 903d a917 b4bd 8e41 acbd
00000190: f376 2bbd 4aca d1bb 4e27 903b 9368 6a3d
000001a0: a3fd f4bc 12c0 93bd 0e6a 14be ea54 c13d
000001b0: 94d7 42bc 4aff d1bc f5fa 82bd 01f9 16bc
000001c0: a792 c4bb e8ee 2bbe 58b7 dbbd 8689 db3c
000001d0: 68be 2b3e afad 1a3e 62c2 263e 5d70 3bbe
000001e0: 14f1 633a a88b f53d bbbf 4ebc 2114 8f3d
000001f0: 476c 053d 10d9 0e3e 6e41 94bd 62cc 003e
00000200: c7a8 943d d499 c7bd f99f 23be 8a6f 41be
00000210: 47b4 cdbd d94a aabd adb9 24bd b5e3 953b
00000220: 6198 413e 06c5 75bc 919d 043e e63a 4bbe
00000230: 1c1f 413d 436a af3d 981d cdbd 74ce e9bd
00000240: 00ac f4bd d99f ffbc 7d77 fdbc b393 f93c
00000250: c926 a63d b151 1d3e 2a27 15be a69f e83d
00000260: 52a5 963d 551b 67bd 3360 9d3d ae43 6638
00000270: b131 9f3b 6d75 1d3d a49c d83d cd80 783d
00000280: 66e8 b4bc f48b ccbd f9db 9f3d 7ee0 7fbc
00000290: 1d47 07be 45d4 fa3d 8e39 693a 80c6 27bd
000002a0: f0ec a23d 9249 01bd aab7 e5bc e1c0 86bc
000002b0: c109 913d 50bc f03c fa82 413d 6a11 783c
000002c0: 3420 f53d 8f56 2a3d 7022 a1bd 7bbd 133e
000002d0: b8af b8bd f3a1 f43d 91c9 b93d 513c d43d
000002e0: 4d32 203e c333 cbbd 3a50 833c f3be c2bd
000002f0: 72ff 273d 42f7 063e 8412 debd 0c14 27bb
00000300: 6961 b73d 129d 08be 60a7 6d3d 292e 02bd
00000310: 4ad7 d33d e658 8c3c 4634 313e 3dfa 0dbe
00000320: 36d3 c23d 92dc 1ebe 2cd2 debc f245 713d
00000330: f3ce 3d3d ffca d4bd 91c0 0bbd ac20 15be
00000340: 146c 0dbc 960a dabd b9f6 0b3e 2bb6 4f3c
00000350: 4318 b2bd 6038 e6bd b8f3 263e e90b 2bbd
00000360: 1e49 ec3d 0dd1 04be dbcb ec3c cf1a 563c
00000370: e27b 86bc 8229 83bd a8a6 aabd 5b1b 3b3e
00000380: 7750 9abc 768d ee3d 8a7a 94bd 401a b33d
00000390: e430 39bc af1a dcbd 62e0 cf3d dffc 963d
000003a0: 45c5 293e 8239 8e3d e70e 26bd e6ee 8cbd
000003b0: e2b8 523b ba8c 073e 27e2 58bc 76ca 32be
000003c0: c28f 37be 663a 233d c54d 033e b519 d0bd
000003d0: ab13 c43d 48c2 84bd c8c7 833d 918f c1bd
000003e0: e1ea f63b 196c bcbd 7c82 65bd ffa9 cbbc
000003f0: 32c0 52bc 2af5 503e 45a3 953d 9224 fcbd
-0.08682113 0.08409646 0.12118803 0.015502258 -0.13075034 0.09036654 0.0025334165 -0.0005718734
0.115685284 -0.09846987 -0.088670135 -0.0052003013 0.09808995 0.15258628 -0.030355122 0.09683536
0.01320539 -0.16058326 0.12501417 0.014210361 0.16594335 0.07883998 0.16086908 -0.17570838
0.15469524 0.23236336 -0.08591799 0.14423008 0.012983261 0.16792825 -0.10182245 0.21142942
0.037065975 -0.1797151 -0.014810694 0.16865784 -0.20655496 -0.06216392 -0.10436536 0.19991526
-0.044806045 0.110784076 0.19289064 -0.029593486 -0.10936255 0.17891565 -0.090798125 -0.09003617
-0.153489 -0.032469317 -0.040222798 0.10395643 0.0041092956 0.041814506 0.1872039 0.23875934
-0.09880233 -0.031775296 -0.19326606 -0.18331526 -0.10342209 -0.12106299 -0.041600335 -0.020669702
0.059466947 -0.12946118 0.07714101 0.18986544 0.02777885 0.15306088 -0.040322866 -0.1367597
-0.009565425 -0.07171224 -0.062292054 -0.101728484 0.005669781 -0.01313142 -0.031950567 -0.05223785
0.16973208 -0.16896619 0.12640141 -0.07698452 0.041350193 0.13912514 0.122268565 -0.018732674
0.07615186 0.13724324 0.041512012 -0.08748711 0.07226782 -0.08362245 -0.20084666 0.07466415
-0.19424371 0.0703307 -0.08793575 -0.08410941 -0.041861486 -0.0064022886 0.0043992167 0.057228636
-0.0299061 -0.07214369 -0.14493582 0.09440024 -0.011892218 -0.025634427 -0.063955225 -0.009214641
-0.0059989276 -0.16790354 -0.107283294 0.026798975 0.16771853 0.15105318 0.16285089 -0.18304582
0.0008695286 0.11989528 -0.012618954 0.06986261 0.032573964 0.1394999 -0.07239042 0.12577966
0.07258754 -0.09746137 -0.15978993 -0.18890205 -0.10044151 -0.08315057 -0.040216137 0.004574264
0.18905784 -0.015000587 0.12950732 -0.19846687 0.04714881 0.0856519 -0.1001541 -0.11416331
-0.11946869 -0.031204151 -0.030940766 0.030465936 0.081128664 0.15363194 -0.14565721 0.113585755
0.07355751 -0.05642255 0.07684364 5.4899305e-05 0.0048582186 0.038442064 0.10576752 0.06066971
-0.022083472 -0.099876314 0.07805628 -0.015617488 -0.13210721 0.122475185 0.0008896821 -0.04096079
0.079553485 -0.031564303 -0.02804168 -0.016449394 0.070819385 0.02938667 0.04724405 0.015140871
0.11969033 0.041586455 -0.078678966 0.1442775 -0.09017891 0.11944952 0.09071649 0.10363067
0.15644188 -0.09921982 0.016029466 -0.09509077 0.041015096 0.13180259 -0.10843375 -0.0025494127
0.089541264 -0.13341168 0.05802095 -0.031782303 0.103437975 0.017132234 0.17305097 -0.1386499
0.095129415 -0.15513828 -0.027199827 0.058904596 0.04633994 -0.10390281 -0.034119193 -0.14563245
-0.008631725 -0.1064655 0.13668336 0.01267771 -0.08696034 -0.112412214 0.16303909 -0.041759405
0.115373835 -0.12970372 0.0289058 0.013067915 -0.016416494 -0.06404401 -0.083325684 0.18272154
-0.018837197 0.11648075 -0.07249935 0.08745241 -0.01130316 -0.10747277 0.101502195 0.0737245
0.16579159 0.069445625 -0.040541556 -0.06881504 0.0032153656 0.13237277 -0.013237513 -0.17460045
-0.17925933 0.039850615 0.12822635 -0.10161153 0.09574064 -0.06482369 0.064345896 -0.09451211
0.007535324 -0.092003055 -0.056032643 -0.024861334 -0.012863206 0.20406023 0.07306532 -0.12311663

bias_ih_l0_reverse f4 [96]
00000000: 7cd2 ae3d b07d 083e 6cc5 633d da40 e63d
00000010: 37a1 0abe 7799 8b3d 348e 8fbd 0a53 11be
00000020: 226a 283e cbbe dbbd ceb6 18bd 12c4 56bd
00000030: 77d6 5e3d 317a cfbd eeb2 163e 6100 e63d
00000040: 7ab9 fb3d 94ce 8b3d 880c 933d 5109 98bd
00000050: 05fe 7e3d 6bea 16be bd49 4d3e 0eea ac3d
00000060: cff7 3abd 5bc8 95bc ae8c bebd fc78 0ebe
00000070: 438d 97bd 9666 26be e41e 1ebd e46f 5d3e
00000080: a5d8 f1bd 9900 2fbd 91f2 57bc 5ef1 553d
00000090: cf48 8b3d 7829 ccbd 9cb1 ee3d 138f e93d
000000a0: 633e e23d 756e 5bbd 1f35 fc3d 825f 083e
000000b0: fd4d 893d fc82 f9bd 9bd3 cfbc 63f3 e83d
000000c0: 6f8e b6bd 0629 3b3c ed8b ddbd 0dc9 1cbd
000000d0: c1d4 a83d 9b53 fe3d 05b5 e03d 9717 14be
000000e0: 4b8b 373e 84f5 80bd e50b b2bb b3b6 b13d
000000f0: dfea b1bd 651e 333e d33d d83d ec71 09bc
00000100: a0e7 1ebe d80d d3bd 2813 053d 4804 853d
00000110: 5c21 f5bd c48d 413c e1c4 ca3d 04c3 20be
00000120: ad21 32be d019 91bc 4f3b 0e3e 0d52 043e
00000130: 5f85 4f3c 08ee 023e 840d 873d ce1e e23d
00000140: fd65 10be 98d2 273d cc53 1b3e 7e09 13be
00000150: cea0 92bc 160a 2dbd 17d8 993c c2b1 c03d
00000160: 9021 acbc ead0 8fbd 257b f0bd ef51 cfbc
00000170: 80bd d8ba 6a92 d83d 3ed5 993d 310e 783d
0.085362405 0.13329196 0.055608198 0.11242838 -0.13538061 0.068163805 -0.07009545 -0.14191833
0.16446736 -0.1072975 -0.03728371 -0.05243308 0.05440375 -0.10130728 0.14716694 0.11230541
0.12291236 0.06826511 0.071801245 -0.07423652 0.06225397 -0.14737861 0.2004766 0.0844308
-0.045646485 -0.018284013 -0.09304176 -0.1391334 -0.073999904 -0.16250071 -0.03860368 0.21624714
-0.118089 -0.04272518 -0.013180391 0.05223214 0.068009965 -0.09968847 0.1165497 0.11404242
0.110470556 -0.053572137 0.123148195 0.13317683 0.06704328 -0.121831864 -0.025369456 0.11374547
-0.08913886 0.011423355 -0.10817704 -0.038277674 0.082437046 0.1241829 0.10972027 -0.14462124
0.1792423 -0.062968284 -0.005433547 0.08677425 -0.08687376 0.17492063 0.10558667 -0.0083889775
-0.15518045 -0.10305375 0.032488972 0.06494957 -0.119692534 0.011813585 0.09900833 -0.15699393
-0.17395659 -0.017712504 0.13889812 0.12921925 0.0126660755 0.12786114 0.06594375 0.11041032
-0.14101405 0.040972322 0.15168685 -0.1435909 -0.017898943 -0.042245947 0.018779797 0.094089046
-0.021012098 -0.07022269 -0.11742238 -0.025307624 -0.0016535968 0.10574801 0.07511376 0.06056041

bias_hh_l0_reverse f4 [96]
00000000: 226c ef3d efec 87bd 0f36 153d b5d9 183e
00000010: 7f8a 403e b454 07be 0b55 c73d fbf5 383d
00000020: 7619 a7bd 5a99 9fbd dcc7 5abd ee64 99bd
00000030: 201a 1b3d 30f0 2cbd 99dd cf3d 4692 a13d
00000040: 8baa 9abd 9759 cebd 7512 2f3e afa8 f63d
00000050: 9be3 19bd f845 1dbe 8b1e 983d 6ca5 683d
00000060: ebec d13d 16da 2b3e 49ab 303d b230 f5bd
00000070: 6fd4 4cbd 1bd6 9e3d 4a3f d03d 11fd b13d
00000080: de8d cb3d 36fe c2bd 0258 3c3c 0b01 a5bc
00000090: a553 37be 362d 04be 51f0 86bd fc62 af3d
000000a0: 2b51 2bbd 64c9 80bd d8bb e53b 5f51 543e
000000b0: e65c 86bd 662a b4bd fb76 edbd cd0b 9fbd
000000c0: e29d ee3d 8a9d 81bd f6f9 61bd d33f 9bbb
000000d0: 99b4 02be 69c3 6d3d 6fd2 18be 056a 9d3d
000000e0: 752e 653e 4758 26bb 4e49 fe3c 9aac e4bc
000000f0: 9c80 b13d 6d13 0b3e 61be febd a52b ddbd
00000100: 7a53 e73d f8e4 1cbe 6678 23be 5e1b 973d
00000110: 5184 ea3d 1893 8ebd 1491 4b3e f90c b23b
00000120: 8aaf 82bd 8eff 1b3c 1194 913a b148 86bd
00000130: 17e8 c8bd 6908 19be 174e b4bc 2175 18be
00000140: b5a9 04be e955 e5bd 6ea0 23bb 4190 00bc
00000150: 66f1 0cbd b750 b33c 2097 4e3d 3c3d 39be
00000160: b235 91bd 88ca cfbd 9590 eabd 06c4 13be
00000170: 502f f43d 4d66 1dbe 86ec bdbd d836 323d
0.116905466 -0.06636988 0.036428507 0.14926799 0.18802832 -0.13215905 0.097330175 0.04515646
-0.08159153 -0.07792921 -0.053413257 -0.07489954 0.03786671 -0.04222125 0.10149688 0.078892276
-0.0755206 -0.10075682 0.17096885 0.120438926 -0.037570577 -0.15358722 0.074277006 0.056798384
0.10250267 0.16782412 0.0431321 -0.119721785 -0.05000728 0.07755681 0.101683214 0.08690847
0.099391684 -0.09521143 0.011495592 -0.020142099 -0.17903002 -0.12907872 -0.065888055 0.08563802
-0.041825455 -0.06288412 0.007010918 0.20734166 -0.06560688 -0.08797149 -0.11594959 -0.07765923
0.116512075 -0.06328876 -0.055170022 -0.004737833 -0.12764205 0.058047686 -0.14924024 0.07686237
0.22381003 -0.0025382207 0.031040814 -0.027914334 0.086671084 0.13581629 -0.12438656 -0.1079934
0.11295219 -0.1532172 -0.15963897 0.07378267 0.114510186 -0.0696165 0.19879562 0.0054336754
-0.06381138 0.009521378 0.0011106749 -0.065568335 -0.098098926 -0.14944614 -0.022009892 -0.14888431
-0.12955363 -0.11198027 -0.002496745 -0.007846893 -0.034409903 0.021889074 0.050437093 -0.18089765
-0.0709032 -0.10146052 -0.11453358 -0.14430246 0.11923087 -0.15371056 -0.09273629 0.043509334

v f4 [32]
00000000: 7258 d93d 019d aebd b2c0 0d3e c02e 923d
00000010: b9f3 1e3e eea3 943d 4ae5 7abc 2c1a 2bbd
00000020: 4fed cfbd d689 2e3e e8f4 87bd adcf 8a3d
00000030: c1ad 443d e4f3 563e 556d 32bd 41fe c6bd
00000040: 8327 a5bc 69aa 843d 81a7 9dbc 80a9 2c3d
00000050: 9687 273e 4c3d b03d c56d 4c3e ccea c13d
00000060: 6b14 4c3e 9a24 2a3e 06bf dcbc ce75 863d
00000070: ecca b6bd 82f2 fdbd 84f7 a23d f6b3 a93d
0.10612573 -0.0852604 0.13843039 0.07137823 0.1552266 0.072578296 -0.015313456 -0.041773006
-0.10152685 0.17044768 -0.06638509 0.06777892 0.048017267 0.20991474 -0.0435613 -0.09716464
-0.020160442 0.06477816 -0.019244911 0.042153835 0.16360316 0.086054415 0.19963749 0.09468612
0.19929664 0.16615525 -0.026946556 0.06565438 -0.08925423 -0.1239977 0.07957366 0.08286278

weight f4 [32, 64]
00000000: b59c 03bd 6c5b fc3d 6fb5 133d 50c4 12bc
00000010: 04da 8c3d 0080 bcbd 01ea 9b3d cd31 31ba
00000020: 0f90 63bc 45f9 e23d 5aa2 e3bc 2a42 66bd
00000030: 48df 2f3d a147 703b c5b7 9a3d d27a b4bd
00000040: 61d6 a4bb 17ef cfbd 5417 13bd 5028 91bd
00000050: 8f41 493d 6899 563d 8873 e43d 4ad2 043d
00000060: 2353 743d c610 ebbc 7c4e 2d3d cd44 663d
00000070: 2ec7 853b 4cae b3bc 4106 5a3d 04ed 85bd
00000080: d5ea cfbd c539 46bc 2a03 ec3d 8c82 c3bd
00000090: 91bb 3cbd 7ec1 b9bc 41b2 d1bd a5ab a4bc
000000a0: ca3d 61bd 33f9 53bc 04a4 0ebd 55c5 b33d
000000b0: 10fc 0bbe 4c8b 4cbe bdf8 bf3c 3acb 31be
000000c0: b2a7 603d 0b8e 28bd 61c9 95bd 2a88 02bd
000000d0: 088d aa3d 66f8 f8bd 6dcc d83d 9e00 1c3b
000000e0: a5b8 adbd 5559 0bbd b2cb 5d3d c796 1cbe
000000f0: 2498 94bd c8e4 e9bd f773 a4bd bed2 603c
00000100: bf31 d83d abd0 d7bd 3dc4 b5bd f07a 443d
00000110: 78b0 f2bd 1ede c73d 90f0 e53d 18a5 e1bd
00000120: 34e1 fdbd f95a 73bd e757 fd3d 6763 233d
00000130: 0e17 863d 1474 76bc 28a7 643d bde5 31bd
00000140: 6e20 47bc 2b01 e43b bf4b 0bbd fca8 d13c
00000150: fa9f 86bd e625 a63d 6c1e 2e3c 37a4 dbbd
00000160: 3b49 aebd d808 1d3d 077b 7dbd b8e6 9e3d
00000170: 9ff2 043c 3d0f 683d c347 b6bd ef17 863d
00000180: 1300 203e 1e59 57bd 4a9a c2bd c407 08be
00000190: a9f7 8a3d 79fb e1bd bb72 c33d 9c16 193c
000001a0: 538f 943c dc81 44bd e9d0 ab3d 27c0 0abe
000001b0: 42a1 583d 0e5a e9bc 4ecd 9d3d d5be 8e3d
000001c0: af71 d8bd 587c 383e f64e b1bc 42ee b4bd
000001d0: 92eb 8e3d b200 073c 6bbc fdbd 497c 68bd
000001e0: 7530 73bd 28b1 9e3d e074 2bbd 2e24 d23d
000001f0: b69c e3bb 757d 4f3d 7a72 623c 5089 173e
00000200: 2256 e73d e613 e5bd ccb7 d13d cac7 4a3a
00000210: d815 ddbd 5630 c2bd 70ee 88bd 14af adbd
00000220: 47a0 373d b529 e8bd 7977 ae3d b646 88bd
00000230: 773c 07bd 8621 da3c 6f05 1cbd f9ce 09bd
00000240: 1122 dbbd fbf5 97bd ab14 99bd 1666 3e3d
00000250: 8a48 44bd 17f1 d3bd b78a e43d 2641 9d3c
00000260: 3f8a 773d 8dfc e93c 2d89 7fbd f6b3 65bc
00000270: 54d6 7abd 7e1e 933d 9ec9 c9bc 274a 58bd
00000280: 028b cfbc 864b 70bd 4d47 0e3e 3eee cc3d
00000290: 44a7 dcbd 966f aabd 732a a23b 1a32 8e3d
000002a0: fe1e 76bd f6e0 eebb 9112 98bd b304 383d
000002b0: 7e7a 6e3d 74aa 5cbe 041e 933d a7d9 cabd
000002c0: 9ac0 debd 7f12 e7bd fc4c 5bbd f849 fbbd
000002d0: 17f1 1e3d 0518 acbd e132 0c3d 151c a53d
000002e0: a72d de3d 70fd fb3d 64ae b43d df62 4cbd
000002f0: 5fb3 1dbe a9e3 213d 0fd9 cfbd 0236 2ebd
00000300: ead2 8e3c 1f94 bcbd a33f 5fbd 0812 b43c
00000310: f92c 0c3c 2853 c83b 1f23 92bd c99a bbbd
00000320: 3339 82bc 8429 8cbd 51b1 efbd 37ae 82bd
00000330: 0dcd 033b fc1f 8abd 26ad 9bbd 5386 f0bd
00000340: c4ed 15bb db3f e7bd 81e5 323a 59d6 8fbd
00000350: a74c dc3c ac33 ca3d 90ba 7c3d 29e7 013d
00000360: 0ae4 26bd 81cd 78bb 9aec c83c f66f 2ebd
00000370: 63ad fabb 7f82 bfbd c502 ba3c 3680 8b3d
00000380: 4761 53be 082a 1d3e 0e83 443d 8656 18bd
00000390: b1e6 76be 78f4 8cbc 8c4c 26be 35d2 283e
000003a0: 0cc1 a33b 8af7 d43d 295e c7ba 1efd d83d
000003b0: 18c8 8a3d 4840 25be a47d 2e3d 2618 4bbe
000003c0: ad41 cdbd 21d8 0cbc e939 e6bd 36be 8b3d
000003d0: cb1b ca3d b588 a2bd 6f08 d7bd 9bb5 af3d
000003e0: 24b9 693c 86ee dc3b 417d 053e 3c9a 60be
000003f0: a194 8dbd 2518 fcbd 1d92 dfbd 3c32 efbd
-0.03213187 0.12322125 0.0360617 -0.008957937 0.06877521 -0.092041016 0.07612992 -0.0006759435
-0.013889327 0.11082701 -0.027787376 -0.056215443 0.042937547 0.0036663788 0.075545825 -0.088124886
-0.005030439 -0.10153025 -0.03591092 -0.07087767 0.049134787 0.052392393 0.11154848 0.03242711
0.059649598 -0.028694522 0.042311177 0.056217957 0.004082582 -0.021933697 0.05322862 -0.06539348
-0.101522125 -0.012098734 0.11524041 -0.09546384 -0.046077315 -0.022675272 -0.10239077 -0.020101378
-0.054990567 -0.012937832 -0.034824386 0.087778725 -0.13670373 -0.19975013 0.023434037 -0.17362681
0.054847427 -0.041151088 -0.073138006 -0.031868137 0.08327681 -0.12156753 0.10585866 0.0023804079
-0.08482484 -0.03402074 0.054149337 -0.15291892 -0.07255581 -0.1142059 -0.08029931 0.01372212
0.10556363 -0.10537847 -0.0887532 0.047968805 -0.11850065 0.09759162 0.11227524 -0.11017817
-0.1239647 -0.05941293 0.12370282 0.03988972 0.06547366 -0.015042324 0.055823475 -0.043431986
-0.012153728 0.006958147 -0.034007784 0.025593273 -0.06573482 0.08112697 0.01062737 -0.10724681
-0.08510061 0.038338512 -0.061884906 0.0775885 0.008114486 0.056655157 -0.08900406 0.06547534
0.15625028 -0.052575223 -0.095020846 -0.13284212 0.06785519 -0.11034293 0.095433675 0.009343769
0.018134749 -0.047975406 0.08389456 -0.13549863 0.052888162 -0.028485324 0.077051744 0.06969992
-0.105685584 0.18016183 -0.021644097 -0.088345066 0.06978525 0.008239912 -0.123894535 -0.056759153
-0.059372384 0.077486336 -0.041859508 0.10260807 -0.0069461716 0.050656755 0.013821239 0.14798474
0.112957254 -0.11185436 0.102401346 0.00077354594 -0.10795182 -0.094818756 -0.06686103 -0.08480659
0.044830587 -0.1133608 0.08518881 -0.06654112 -0.03301665 0.026627313 -0.03809112 -0.03364465
-0.10699857 -0.07419964 -0.07474645 0.046484075 -0.04792074 -0.103487186 0.1115927 0.019196104
0.060434576 0.028562808 -0.06238668 -0.014019957 -0.061239555 0.0718355 -0.024632271 -0.052805092
-0.025334839 -0.058665775 0.13894387 0.100063786 -0.10774091 -0.083220646 0.004948908 0.0694315
-0.06008815 -0.007290001 -0.07425416 0.044926357 0.058222286 -0.21549398 0.071834594 -0.09904795
-0.108765796 -0.11282825 -0.053540215 -0.12269968 0.03880414 -0.08403019 0.03422821 0.08061997
0.10848551 0.12304199 0.08822325 -0.04989898 -0.15400456 0.039523754 -0.101488225 -0.042531975
0.017434556 -0.09207939 -0.054504048 0.021981254 0.008555644 0.0061134286 -0.07135605 -0.09160382
-0.015896415 -0.06843856 -0.11703742 -0.06380885 0.0020111233 -0.06744382 -0.07601385 -0.1174437
-0.0022877315 -0.11291476 0.000682436 -0.070233054 0.02689202 0.09873137 0.061701357 0.031714592
-0.04074482 -0.0037964287 0.024526883 -0.042587243 -0.007650064 -0.09351062 0.022706399 0.06811564
-0.20642577 0.15348065 0.047976546 -0.03719189 -0.2411144 -0.017206416 -0.16240138 0.16486438
0.004997378 0.10398777 -0.0015210557 0.10595153 0.06776446 -0.16137803 0.04260029 -0.1983343
-0.10022292 -0.008596451 -0.11241514 0.06823389 0.09868582 -0.07936231 -0.104996555 0.0857956
0.014265332 0.0067423014 0.13036062 -0.21933836 -0.06913114 -0.12309293 -0.10916541 -0.11679503

bias f4 [32]
00000000: e9d8 223b 1520 a33d de96 883d f5cf f03d
00000010: 70aa f63d 81a2 a0bd 6fb7 9e3d d9bc 0dbc
00000020: 4aca 913c 08c0 d3bd fff6 d03c e987 42bd
00000030: f38d e73d 8099 fa3c 95b3 463c b689 8bbc
00000040: 8437 a53d cd20 a93d b579 bebc c36a 3b3d
00000050: 9dfc fc3d 8556 423d 2d2b f8bd adbe 87bd
00000060: 84a7 ffbc 234f 263d 6745 d1bc 4cd6 debd
00000070: 2f5d e7bd d74d 2bbd 5c0d 9bbd 078f 5fbd
0.0024848527 0.079651035 0.06669401 0.11758415 0.12044227 -0.07843495 0.07749831 -0.008650982
0.017796654 -0.103393614 0.025508402 -0.047492895 0.113063715 0.030590773 0.012127777 -0.01703344
0.080672294 0.082582094 -0.023251394 0.045756113 0.1235287 0.047445793 -0.1211761 -0.066281654
-0.031207807 0.040602814 -0.025545789 -0.10880718 -0.1129707 -0.04182228 -0.075709075 -0.05457976

weight_ih_l0 f4 [96, 332]
00000000: ea0b 3e3e 18f1 57bd 8539 1e3e 87cd 93bd
00000010: a176 eebd e232 6fbd 44f0 f4bd def2 fb3c
00000020: ee1d 383e 3aab f7bc 2a2a 1bbe 43dc 1bbe
00000030: e2dc 2a3d 0fbb 2f3e e238 0bbe 0680 853d
00000040: 4e29 ddbd 40da 9bbd f00f fcbd 8e3d a2bd
00000050: 62b5 083d 04e6 23be b4ca 153e 7589 d33d
00000060: db0c c03c d039 7b3d 8dc2 dbbc 50bc 363c
00000070: f3c8 febd a566 c9ba 5cef b03d 3bc5 9fbc
00000080: de0e a03d df98 eabd df34 2bbe a82a 29be
00000090: 4c5c e03d b131 dabc 46e0 213e 6466 003e
000000a0: a615 06be 010e 2ebe 8e43 a23c 6eb9 833d
000000b0: 09a4 75bd 26ca 96bd 0363 3ebd e574 fcbc
000000c0: 7ee5 fe3d 36dd 53be 25c6 8c3d 964e 5a3e
000000d0: 2932 f13d eda9 96bd 0040 4f3d 9b79 e8bd
000000e0: 1359 3b3d 0827 1cbc 8aa4 083e 9bab a9bd
000000f0: 42b4 633e bf7f 3c3e e5e2 583d 4671 2fbe
00000100: a268 5d3e d1c0 c6bd d490 01bd 6585 9e3c
00000110: 5bac 0ebd 26bf 253d 79e7 32be e8eb 82be
00000120: aa7a ffbd 0211 a2bd ef8f 3cbe cd71 8b3d
00000130: 0c7f 793d 9397 c63d 3b7b eabc eae5 b4bd
00000140: 5741 7bbe fc34 b93d d5d0 6a3d 052a d1bd
00000150: c401 2dbd a574 4f3e 358b eb3d 603f eb3c
00000160: 8423 1ebe 126c c0bd 1786 5b3e b949 e73d
00000170: 151d 50bd 650a ab3b 5c95 023d a403 3f3e
00000180: acf6 ba3c 5239 003d 5da7 663c 5ff7 4bbc
00000190: 070a 5c3d d590 36bd 0633 20be b478 c13d
000001a0: 000d f23b a2eb 6fbd 42c2 31be 37ac 063e
000001b0: a719 c3bc 4898 4f3e 96df a2bd da52 39bd
000001c0: 16db a5bd 950f 043d 656e 9e3d a9c1 253d
000001d0: 503e 8b3d 8d44 3a3e 9326 74bd fe14 66bd
000001e0: da1a 563c c93c ed3c 1ebf 173e 2b38 febc
000001f0: acfa 14be a570 1bbd de60 283d 7216 ea3d
00000200: b1e2 72be 283d dc3d a873 8bbd d178 2fbe
00000210: 6d3b 8cbd cc28 c93d fd7a 423d 34e5 0dbe
00000220: d7f6 c3bd d657 113e e4a7 17be 911a c8bd
00000230: deac 1d3e 9c4e 103c f266 293e 54e1 fe3d
00000240: 02c7 083e 443f 06be ffd4 45bd f1d4 dfbd
00000250: ee90 b23d 1d95 5bbd ab51 e1bd 3eb1 963c
00000260: b4d2 0fbe 5d3a bc3d 7ccf 9e3d 9f4d 6e3d
00000270: ae94 053e 01d9 9b3d 23be 013e 5531 2a3e
00000280: e29a cbbd d395 0abe f584 10bc b18c c8bd
00000290: 388d 35be ac59 e9bc 55cc 41bd c33e 61be
000002a0: 8983 463c 02e1 efbd 6195 40be 3a20 0abe
000002b0: 622c 1d3d 0ce7 e3bd 5180 19be 38df 4cbd
000002c0: 7012 0e3e f64a 06bc 71dc da3a a434 093e
000002d0: cf33 1f3e 204c 3e3e 7089 09be 0792 8cbe
000002e0: 2b8f 55be 0151 c83c 4511 2c3d bb40 65bc
000002f0: 5467 8dbd d0ed 87be 27c0 00be b87f 84bc
00000300: 1427 f8b8 64e2 ab3c afa0 aebd 1444 a2bd
00000310: c5f5 ddbd ab15 ce3c ba90 17bc 51e6 173d
00000320: 6578 103e cdbe 103c 466c 07bd 4e8c 1e3e
00000330: b27c 8dbc 3c5a 3f3d 0352 fd3d c5a6 0ebe
00000340: b0ee ffbd 6b13 213e a1be 35be 3abb 563e
00000350: 960c 39be 648c f1bc 69a6 0bbe e461 0abd
00000360: 0de7 adbd 9c1f 443e dc61 8c3d 17cc 70bb
00000370: 7144 91bc 5288 34be 4c71 4aba 55a5 1b3e
00000380: ac1a 31bd c187 9fbd cc32 4e3d 4432 213e
00000390: 1075 ebbd b57b 883d e6a4 dfbd 63a7 523e
000003a0: f46d 29bd 0c48 1cbe 94ba 78bd 24a0 95bc
000003b0: 9e91 1c3e 6a7c 2d3e 5168 fe3d e976 e83d
000003c0: 2c13 18be 2a8a bd3d 6b1e ecbc 0d46 9ebc
000003d0: e255 25be 872b 7ebd 76d6 343e 6ec9 c3bd
000003e0: 154d 02be eb03 c93d b26e 04be a82d b1bd
000003f0: f187 0fbe aef1 be3d 32a6 82be b6b4 fc3c
0.18559232 -0.05272016 0.1545163 -0.072169356 -0.116437204 -0.058398135 -0.119598895 0.030755457
0.17980167 -0.030233014 -0.15152803 -0.15220742 0.041714557 0.17161201 -0.13595918 0.06518559
-0.10798894 -0.07609987 -0.12307727 -0.07921897 0.033376105 -0.16005713 0.14628106 0.10328952
0.02344363 0.06133443 -0.026826167 0.011153296 -0.12440672 -0.0015365673 0.08639404 -0.019503227
0.07815336 -0.11454939 -0.16719387 -0.16520178 0.10955104 -0.026635023 0.1580821 0.12539059
-0.13094196 -0.1699753 0.019807603 0.06431852 -0.05997089 -0.073627755 -0.046481144 -0.030817458
0.12446116 -0.20689854 0.068737306 0.2131904 0.117771454 -0.073566295 0.050598145 -0.113513194
0.045739245 -0.00953079 0.13344017 -0.08284684 0.22236732 0.18408106 0.05295076 -0.17133054
0.21621946 -0.097047456 -0.03163226 0.019350717 -0.03483234 0.040465496 -0.17471112 -0.25570607
-0.12474568 -0.079134 -0.18414281 0.06808815 0.060912177 0.09696879 -0.028623214 -0.08832915
-0.24536644 0.09043309 0.057328064 -0.10213093 -0.042238012 0.2025934 0.11501161 0.028716743
-0.15443236 -0.09395613 0.2143787 0.11293358 -0.050808985 0.005219745 0.03188072 0.18653733
0.0228227 0.031304665 0.014077988 -0.012449115 0.0537205 -0.044571716 -0.15644464 0.094468504
0.0073868036 -0.058574326 -0.1735926 0.13151632 -0.023815943 0.20272934 -0.07952802 -0.04524503
-0.08098428 0.032241423 0.077359 0.04046789 0.067989945 0.18190213 -0.0596071 -0.056172363
0.013067925 0.028959649 0.14818999 -0.031032642 -0.14548749 -0.037949223 0.041108005 0.11430062
-0.23719288 0.10753852 -0.06809169 -0.17135932 -0.06847272 0.098222345 0.047480572 -0.13856965
-0.09568565 0.14193663 -0.14810139 -0.09770692 0.15397975 0.008807804 0.16543177 0.12445322
0.13357165 -0.13110071 -0.048298832 -0.10929287 0.087190494 -0.053609002 -0.11001905 0.018395063
-0.1404522 0.091908194 0.07754418 0.058179494 0.13044998 0.076097496 0.12670188 0.16620381
-0.09941651 -0.13533716 -0.008820762 -0.0979246 -0.17729652 -0.028485142 -0.047314007 -0.21996598
0.012116321 -0.11712839 -0.18806984 -0.13488856 0.038372405 -0.11128053 -0.14990355 -0.050017565
0.13874221 -0.008196583 0.0016697777 0.13398987 0.15547107 0.18583727 -0.13431334 -0.2745516
-0.20855395 0.024452688 0.042008657 -0.013992484 -0.06904474 -0.26548624 -0.125733 -0.016174182
-0.000118328404 0.020981975 -0.08526742 -0.07923141 -0.108378924 0.025156816 -0.009250814 0.03708488
0.14108427 0.008834553 -0.033062242 0.1548321 -0.017271373 0.046716914 0.12369158 -0.13930805
-0.12496698 0.15730064 -0.177485 0.20969859 -0.18071207 -0.029485889 -0.13637699 -0.033784762
-0.08491335 0.19152683 0.06854603 -0.003674274 -0.01773283 -0.17630127 -0.0007722571 0.15199788
-0.043238327 -0.07789565 0.050341412 0.15741831 -0.11496937 0.0666422 -0.10920124 0.20571665
-0.041364625 -0.15261859 -0.06072481 -0.018264838 0.15289924 0.16941991 0.124222405 0.11350805
-0.14851063 0.09254868 -0.028823098 -0.019320512 -0.16146043 -0.06205323 0.17659935 -0.09559904
-0.12724717 0.098152004 -0.12932852 -0.08651286 -0.14016701 0.093234405 -0.25517422 0.030847888
