src/results/models/MOSI/MulG_Model.pt (torch, 952437 bytes, 45 tensors)

weight_ih_l0 f4 [150, 20]
-0.0988226 0.10085419 -0.06917618 -0.009221596 -0.105260864 -0.15167087 0.051770825 0.1340665
0.12335541 -0.11660061 0.020204628 0.018886048 -0.0015356154 -0.098368846 -0.011598442 0.03488041
0.10085261 0.1420082 -0.115929954 0.13187636 -0.0073306584 -0.06465497 -0.096504666 0.02708318
-0.10268711 -0.121314965 0.07936012 -0.082425766 0.087570526 -0.10767478 -0.07448628 0.014437434
-0.11934525 -0.06934618 0.021901144 -0.07896375 0.025247935 -0.07340294 0.112253994 -0.08691127
0.0672335 0.14166997 -0.15389979 -0.08370435 0.14655955 0.13593765 -0.11258222 -0.07978748
0.11652709 -0.090879746 0.08414148 0.014083693 -0.102234475 0.093386985 -0.061494183 0.14110404
-0.09098516 -0.061634954 0.13402554 0.14667572 0.07583794 0.04473191 -0.06329812 0.016855294
-0.010896619 -0.103791505 0.09634259 -0.054328907 0.05881259 0.0754971 -0.09454952 0.030244948
-0.11636604 -0.055206247 0.021088818 -0.02597913 -0.10203922 0.11499176 -0.061046343 -0.006787507
0.011820039 -0.0015275717 0.17031488 0.060913604 -0.0011075491 0.07859382 0.053005952 0.018877644
0.1328571 0.002634164 0.13951974 0.15134604 0.09463033 0.00660241 0.080341734 -0.17931212
0.1363081 -0.032325905 0.03969344 -0.060112365 -0.05366409 -0.021832578 -0.011204167 0.024458496
0.033349175 -0.074148506 0.059881575 -0.054151967 0.04083359 -0.019535374 -0.04105669 -0.13922605
-0.044301394 0.014495621 0.055350177 0.005746132 -0.08269946 -0.13110422 -0.10471398 0.12493256
0.10111778 -0.100591816 -0.021896038 -0.09557625 0.033619333 -0.14791961 0.06471309 -0.025302846
-0.12492244 -0.09435144 -0.11234145 0.04554945 -0.0349524 0.08170458 -0.07520806 0.01590162
0.107649766 -0.0138305565 -0.09817368 -0.10371002 0.056415997 0.06712914 0.085500896 0.113874376
0.011204849 0.10854872 0.06155602 0.009782094 -0.07362758 -0.10833696 -0.056478627 -0.08879182
0.031455554 -0.038313407 -0.02857203 0.10279371 -0.06340775 -0.03461789 -0.10393571 0.09386774
0.08269188 0.1283238 -0.08662613 -0.14891683 -0.14562473 0.16380079 0.055442646 0.122741476
-0.13368003 -0.0053071966 -0.03208877 0.0038532063 0.13623133 -0.02387367 0.06504226 -0.02211002
0.06506557 0.1021439 0.025619406 -0.08861753 0.12671873 -0.040956113 -0.073215544 -0.12957902
-0.06665353 -0.046073627 -0.013934422 -0.16300772 -0.14918488 0.053048838 -0.12530479 0.079671204
0.06758816 -0.16487464 -0.090243414 -0.07010607 -0.031698212 -0.108965516 0.1708065 -0.012382199
0.090815626 -0.03988343 0.026515068 0.02617266 -0.05605566 0.055575393 -0.10710563 0.10479854
-0.053236034 0.0065526953 -0.07919902 0.0471867 0.07221585 -0.08549909 0.10248479 0.0076452107
0.12515564 -0.14051603 -0.050994433 0.015416073 0.0006367446 -0.046299554 0.11509082 0.016689278
-0.13671106 0.046713974 -0.10410356 0.12240123 0.09153214 -0.1181699 0.08907393 -0.03323153
0.009859213 0.08087128 -0.13467574 0.08411817 -0.05065681 0.04537031 -0.08824859 0.018722067
0.027870392 0.13642721 -0.047765166 0.081492156 0.02285178 0.026989045 0.016163377 -0.10846461
0.08152693 0.13684879 -0.11083144 -0.05050852 -0.08648413 0.06630588 -0.07354813 0.12532501
00000000: 8163 cabd a48c ce3d 3eac 8dbd 2d16 17bc
00000010: 0293 d7bd 9c4f 1bbe a50d 543d bb48 093e
00000020: c3a1 fc3d 4dcc eebd 2d84 a53c eab6 9a3c
00000030: b446 c9ba 9b75 c9bd 6407 3ebc c3de 0e3d
00000040: d08b ce3d 996a 113e af6c edbd 990a 073e
00000050: 0536 f0bb d369 84bd 3da4 c5bd 8cdd dd3c
00000060: 9f4d d2bd fb73 f8bd 8f87 a23d d7ce a8bd
00000070: 2d58 b33d 9884 dcbd 438c 98bd fd8a 6c3c
00000080: 486b f4bd 5f05 8ebd 076a b33c bfb7 a1bd
00000090: c2d4 ce3c 4854 96bd 6ce5 e53d 89fe b1bd
000000a0: b8b1 893d ef11 113e e897 1dbe 306d abbd
000000b0: b513 163e 3d33 0b3e 8291 e6bd 9e67 a3bd
000000c0: c1a5 ee3d 291f babd 5e52 ac3d 4abf 663c
000000d0: 4f60 d1bd ad41 bf3d 53e1 7bbd 947d 103e
000000e0: 6d56 babd ef74 7cbd fe3d 093e 2932 163e
000000f0: ec50 9b3d cf38 373d 72a2 81bd 1d14 8a3c
00000100: bc87 32bc a490 d4bd 444f c53d fd87 5ebd
00000110: 78e5 703d 399e 9a3d 2ea3 c1bd 41c4 f73c
00000120: 5251 eebd f21f 62bd 75c2 ac3c 2fd2 d4bc
00000130: f0f9 d0bd cd80 eb3d bb0b 7abd bc69 debb
00000140: d6a8 413c cd38 c8ba 0667 2e3e 8b80 793d
00000150: 2e2b 91ba ccf5 a03d c51c 593d 4aa5 9a3c
00000160: b10b 083e f0a1 2c3b 43de 0e3e 75fa 1a3e
00000170: 8ccd c13d 0859 d83b 358a a43d 999d 37be
00000180: 5a94 0b3e 2b68 04bd 9795 223d 6238 76bd
00000190: e0ce 5bbd 3cda b2bc af91 37bc 2f5d c83c
000001a0: 2599 083d 2cdb 97bd 6246 753d 74ce 5dbd
000001b0: 1f41 273d a608 a0bc 0f2b 28bd 4691 0ebe
000001c0: 6175 35bd 0b7f 6d3c deb6 623d 0d4a bc3b
000001d0: 565e a9bd 2f40 06be 4874 d6bd a4dc ff3d
000001e0: d716 cf3d 1503 cebd 525f b3bc 7bbd c3bd
000001f0: 6db4 093d 3d78 17be 4c88 843d ea47 cfbc
00000200: 56d7 ffbd 543b c1bd 4613 e6bd 0f92 3a3d
00000210: 3f2a 0fbd bb54 a73d af06 9abd 1d44 823c
00000220: 7b77 dc3d 8f99 62bc 480f c9bd eb65 d4bd
00000230: 7614 673d 017b 893d 181b af3d f836 e93d
00000240: 8b94 373c cb4e de3d 2a22 7c3d 1345 203c
00000250: 0fca 96bd c5df ddbd 2256 67bd 7cd8 b5bd
00000260: 8ad7 003d 85ee 1cbd e40f eabc 8285 d23d
00000270: ecdb 81bd 7dcb 0dbd 3fdc d4bd bb3d c03d
00000280: 5c5a a93d 5067 033e 0a69 b1bd a77d 18be
00000290: a61e 15be 65bb 273e d417 633d e25f fb3d
000002a0: 6be3 08be fee7 adbb 846f 03bd 1386 7c3b
000002b0: 3a80 0b3e b792 c3bc e034 853d 1320 b5bc
000002c0: 1941 853d d230 d13d cadf d13c 1c7d b5bd
000002d0: 8ec2 013e 99c1 27bd 08f2 95bd 5db0 04be
000002e0: a581 88bd b3b7 3cbd 344d 64bc 7feb 26be
000002f0: ecc3 18be bd49 593d e64f 00be a82a a33d
00000300: a96b 8a3d e6d4 28be 8ad1 b8bd c593 8fbd
00000310: fcd5 01bd 5029 dfbd e6e7 2e3e b5de 4abc
00000320: 8bfd b93d cf5c 23bd 2136 d93c 0c68 d63c
00000330: 9f9a 65bd 06a3 633d 325a dbbd 9ea0 d63d
00000340: 070e 5abd feb7 d63b 1933 a2bd d746 413d
00000350: e7e5 933d 261a afbd 8ce3 d13d ad84 fa3b
00000360: cd28 003e 6fe3 0fbe 8adf 50bd b293 7c3c
00000370: 35eb 263a 9aa4 3dbd bcb4 eb3d f4b7 883c
00000380: fcfd 0bbe 2757 3f3d 3f34 d5bd 7fad fa3d
00000390: 3475 bb3d 0f03 f2bd 656c b63d c91d 08bd
000003a0: 8988 213c d79f a53d 70e8 09be 2646 ac3d
000003b0: 847d 4fbd 38d6 393d adbb b4bd 055f 993c
000003c0: 7350 e43c 93b3 0b3e 68a5 43bd 5ce5 a63d
000003d0: a833 bb3c 2118 dd3c 0f69 843c b222 debd
000003e0: 97f7 a63d 1722 0c3e 98fb e2bd 06e2 4ebd
000003f0: 971e b1bd 61cb 873d 67a0 96bd 3355 003e

weight_hh_l0 f4 [150, 50]
-0.085124 0.07490779 -0.10676837 0.095268935 0.07181058 0.030620491 -0.12806933 -0.10200315
0.065927826 0.03733931 -0.023730773 0.0896081 -0.038704183 -0.038648218 -0.117679276 -0.14037737
0.04618721 0.07582261 0.06520999 -0.06464882 -0.026539238 0.056453243 -0.13018465 -0.045910373
0.029513234 -0.11661898 0.020245805 0.08766227 -0.119170025 0.010156812 -0.05736764 0.046849597
0.053235967 -0.09081778 0.020052126 0.08553437 -0.022426546 0.115918025 -0.06046082 0.033096064
0.09611657 0.015746327 -0.10721808 -0.10355498 -0.033296872 0.0898759 0.020434937 -0.016088197
0.047858175 -0.10417007 0.060212996 -0.024877528 -0.10755768 0.03067399 -0.044060785 -0.009284682
-0.05669399 0.09199029 0.07943645 -0.031547908 0.070446484 -0.00088496384 -0.09644267 -0.003876892
-0.08270111 -0.083629906 -0.048095588 -0.03664307 0.09360523 0.030756915 -0.050421715 0.11105566
-0.09539675 -0.1352295 0.08404413 -0.05192708 0.013311115 -0.123260476 -0.061292246 -0.047490366
-0.039043162 -0.06296222 -0.12111714 -0.11425148 0.002319883 -0.0020847016 0.057672538 -0.08731784
0.113013476 -0.10852998 0.07302095 0.10791 0.06853002 -0.035160687 0.08276238 -0.0053345747
-0.020202016 -0.051521838 -0.049041633 0.09637286 0.13363439 0.13268575 -0.13897355 0.12682761
0.036010638 0.08001252 0.12407827 -0.015437644 0.003720396 0.10858649 -0.09288055 -0.03008725
-0.048413754 0.04970963 -0.050163176 0.14339669 -0.09222832 0.013092999 -0.0070921085 0.14721178
0.0307253 -0.038392905 -0.097592555 -0.11329034 -0.06465041 -0.07637574 -0.081248246 -0.07120284
-0.024107156 -0.12378459 -0.08573914 0.0763038 0.05384747 -0.00035678464 -0.12229697 0.108684935
0.059002683 0.10226102 -0.0009447078 0.029142402 0.002827948 -0.06491404 0.15544534 0.041905846
-0.06235794 0.06024834 0.06099982 0.012972186 0.03440831 0.17891218 -0.13274443 0.040887438
0.15286645 0.057041153 0.09076891 -0.07879654 0.13271138 -0.11076979 0.1605025 -0.02283738
-0.095407724 -0.058711458 0.050222065 -0.09484067 -0.046975687 -0.13841671 -0.02911326 -0.062353577
-0.123112835 -0.09823042 0.0003467508 -0.04475584 0.10193287 -0.050666943 0.07004249 -0.0039635603
-0.06677069 0.04690364 0.0061295754 -0.1207097 0.05862304 -0.010797428 0.061808478 -0.14648743
-0.012672476 0.010931761 -0.0057816315 -0.016867846 -0.0065390747 -0.11096861 0.04587636 0.020266095
-0.11325057 0.04859353 0.023282785 0.029734049 0.07782049 -0.14381084 -0.10988931 0.107021764
-0.077256724 0.05106264 0.030935701 -0.045203622 -0.08930813 -0.045324482 0.095442645 0.0013019354
0.038998432 -0.14677405 -0.029587908 0.0128688505 -0.017494485 -0.08470474 -0.046015255 0.035663806
-0.039991997 -0.09116994 0.0474873 -0.014325674 0.016906535 0.03599084 -0.03596652 0.017629718
-0.07057657 0.013527227 0.012955737 0.034705576 -0.11742186 -0.0495008 0.18645293 0.13722967
0.12463901 0.17428775 0.12734225 0.041497692 -0.036044423 0.10264851 -0.003127006 0.073302425
0.056225188 0.06798762 0.03917981 0.13611604 0.030100957 0.10840578 -0.11139613 0.03568487
0.11320938 0.03622008 -0.014317187 -0.0010828669 -0.057882346 -0.09137565 0.008809383 0.06266137
00000000: 7e55 aebd 4169 993d 60a9 dabd 5c1c c33d
00000010: 6d11 933d d3d7 fa3c 9b24 03be 07e7 d0bd
00000020: 2b05 873d 1bf1 183d 0a67 c2bc 7484 b73d
00000030: 4788 1ebd 984d 1ebd d501 f1bd 16bf 0fbe
00000040: cd2e 3d3d e248 9b3d d18c 853d 9a66 84bd
00000050: d168 d9bc 843b 673d 204f 05be 840c 3cbd
00000060: bdc5 f13c efd5 eebd 88da a53c 4788 b33d
00000070: 6a0f f4bd c268 263c 55fa 6abd 5de5 3f3d
00000080: f50d 5a3d acfe b9bd 5b44 a43c a52c af3d
00000090: e0b7 b7bc 6e66 ed3d c4a5 77bd bd8f 073d
000000a0: c4d8 c43d 71fe 803c 2795 dbbd a214 d4bd
000000b0: 4d62 08bd db10 b83d 2b67 a73c 65cb 83bc
000000c0: ef06 443d 1e57 d5bd e7a1 763d f5cb cbbc
000000d0: 3347 dcbd 0548 fb3c 1579 34bd c71e 18bc
000000e0: f537 68bd 6865 bc3d 94af a23d 6138 01bd
000000f0: 3f46 903d ebfc 67ba bc83 c5bd 7413 7ebb
00000100: 335f a9bd 2846 abbd e1ff 44bd 0b17 16bd
00000110: 19b4 bf3d edf5 fb3c 0087 4ebd 2671 e33d
00000120: 5f5f c3bd 9a79 0abe 541f ac3d 7db1 54bd
00000130: dd16 5a3c fd6f fcbd 940d 7bbd 4285 42bd
00000140: b9eb 1fbd 56f2 80bd 430c f8bd aefc e9bd
00000150: 2e09 183b 7d9f 08bb 0a3a 6c3d b2d3 b2bd
00000160: 9c73 e73d f744 debd 028c 953d ebff dc3d
00000170: 7859 8c3d a704 10bd 537f a93d a8cd aebb
00000180: b37e a5bc 9008 53bd e1df 48bd 225f c53d
00000190: 74d7 083e c6de 073e 154f 0ebe 19df 013e
000001a0: e47f 133d 9bdd a33d bf1c fe3d 2cee 7cbc
000001b0: e3d1 733b 9862 de3d 2838 bebd 8979 f6bc
000001c0: 804d 46bd 539c 4b3d e777 4dbd 95d6 123e
000001d0: 34e2 bcbd 0584 563c eb64 e8bb afbe 163e
000001e0: a0b3 fb3c e141 1dbd 9bde c7bd c404 e8bd
000001f0: 6f67 84bd e26a 9cbd 7b65 a6bd cbd2 91bd
00000200: 5f7c c5bc c682 fdbd 0198 afbd 2b45 9c3d
00000210: 2a8f 5c3d d30e bbb9 d576 fabd 3596 de3d
00000220: ccac 713d 3a6e d13d 44a6 77ba 0cbc ee3c
00000230: 1855 393b a7f1 84bd 102d 1f3e 77a5 2b3d
00000240: 0a6b 7fbd f7c6 763d f2da 793d 4b89 543c
00000250: baef 0c3d c134 373e 28ee 07be 9679 273d
00000260: 0689 1c3e fca3 693d 0de5 b93d 1560 a1bd
00000270: 7ee5 073e 46db e2bd c45a 243e 7515 bbbc
00000280: 2065 c3bd 6d7b 70bd a7b5 4d3d d33b c2bd
00000290: 9469 40bd 1cbd 0dbe ee7e eebc 7766 7fbd
000002a0: 9522 fcbd 082d c9bd 1bcc b539 e651 37bd
000002b0: 2ec2 d03d 2488 4fbd 7072 8f3d c1e0 81bb
000002c0: 12bf 88bd 081e 403d 9bda c83b a636 f7bd
000002d0: b61e 703d b2e7 30bc e32a 7d3d cd00 16be
000002e0: 37a0 4fbc 211b 333c d773 bdbb 702e 8abc
000002f0: bc45 d6bb 8343 e3bd dae8 3b3d 1505 a63c
00000300: eaef e7bd 020a 473d 8abb be3c d294 f33c
00000310: 5960 9f3d 2643 13be a60d e1bd 3a2e db3d
00000320: c638 9ebd 0f27 513d de6c fd3c 6f27 39bd
00000330: 2ee7 b6bd 2aa6 39bd 6f77 c33d b4a5 aa3a
00000340: d2bc 1f3d f04b 16be 5762 f2bc dfd7 523c
00000350: 9850 8fbc ae79 adbd 7e7a 3cbd 3614 123d
00000360: a6ce 23bd 4eb7 babd 0b82 423d 3bb6 6abc
00000370: 937f 8a3c 226b 133d a151 13bd 336c 903c
00000380: 738a 90bd 4da1 5d3c 4d44 543c 6f27 0e3d
00000390: df7a f0bd 5ac1 4abd 84ed 3e3e ef85 0c3e
000003a0: bd42 ff3d 7d78 323e 0266 023e 7cf9 293d
000003b0: 51a3 13bd 6239 d23d 75ee 4cbb 951f 963d
000003c0: 624c 663d 183d 8b3d 027b 203d 0162 0b3e
000003d0: 4896 f63c d903 de3d a723 e4bd 4c2a 123d
000003e0: 52da e73d 825b 143d a292 6abc fcee 8dba
000003f0: 0a16 6dbd 2823 bbbd 3b55 103c 9b54 803d

bias_ih_l0 f4 [150]
-0.058560304 0.0721451 -0.03489282 0.024030205 0.15352884 0.008491483 0.1292448 -0.002545407
-0.003560185 -0.057034574 -0.10808746 0.080758676 -0.10503444 0.057278294 0.09413812 0.09869792
0.071641706 0.13642831 -0.12267822 -0.024723122 0.10791513 -0.050520547 0.15547888 0.054999433
0.08184132 0.014570904 0.12893021 -0.12009875 -0.12520847 -0.15179521 0.015032004 0.10287337
0.0634223 -0.07890042 0.1117059 0.14337383 -0.024965601 0.025224833 0.039603207 0.12561093
0.012034914 -0.08126422 0.12848713 -0.0085886195 0.044471793 0.16384251 0.15990935 0.052557822
-0.08468794 0.1219064 -0.11565486 0.12562487 0.035961688 0.050755378 -0.11270573 0.13558772
-0.050621603 0.12571332 0.12714718 -0.08856533 0.115918465 0.11110623 -0.15075849 0.044028744
-0.017770186 -0.08817327 0.08312704 -0.035955384 -0.08439769 0.12407551 0.11589455 0.002722207
-0.084724315 -0.056139667 -0.1091959 -0.083217226 0.004190473 0.11038552 -0.06511257 -0.1441836
-0.021932462 -0.022643287 0.10762913 -0.13787358 -0.0805945 -0.076944195 -0.12620391 -0.12671845
0.021149876 -0.009811763 0.12701987 -0.050234746 -0.052382562 -0.13953674 -0.025797874 0.06935718
-0.16453415 0.12964047 0.033580102 0.03105806 -0.14347926 0.026044855 -0.016093306 0.12864304
0.0014527516 0.11243234 0.08272841 0.0133823855 0.053551283 -0.046316974 0.13805449 0.13811284
-0.098297015 0.14204283 0.09045245 6.1653043e-07 0.10377689 -0.0047910297 -0.08327123 -0.14706355
-0.14522508 -0.093003996 0.12131037 0.13109307 -0.08916214 -0.017933365 0.03134394 -0.04781137
0.0028048982 -0.09151386 0.054369975 0.15123689 0.08766221 -0.021740979 0.025146235 0.13260446
0.06592205 0.07402733 -0.08924916 -0.105721414 0.07140998 -0.12716918 -0.102556825 -0.08042203
-0.03407221 0.06725826 0.014176888 -0.14474094 -0.011256634 -0.11136127
00000000: eedc 6fbd cfc0 933d c6eb 0ebd feda c43c
00000010: aa36 1d3e dc1f 0b3c c058 043e d8d0 26bb
00000020: fe51 69bb 169d 69bd f55c ddbd ce64 a53d
00000030: 4c1c d7bd a59c 6a3d 7dcb c03d 2322 ca3d
00000040: e3b8 923d ddb3 0b3e b83e fbbd 2588 cabc
00000050: 9c02 dd3d a2ee 4ebd db35 1f3e 1647 613d
00000060: 6c9c a73d cdba 6e3c 4806 043e 55f6 f5bd
00000070: a636 00be 3470 1bbe cb48 763c 46af d23d
00000080: 8de3 813d 8b96 a1bd 10c6 e43d 97d0 123e
00000090: a984 ccbc 4fa4 ce3c f936 223d 27a0 003e
000000a0: 172e 453c db6d a6bd 2192 033e 48b7 0cbc
000000b0: 0e28 363d 55c6 273e 47bf 233e df46 573d
000000c0: df70 adbd 10aa f93d 75dc ecbd cea3 003e
000000d0: 904c 133d dfe4 4f3d 43d2 e6bd 82d7 0a3e
000000e0: 9958 4fbd feba 003e df32 023e bd61 b5bd
000000f0: a966 ed3d aa8b e33d 6f60 1abe 7c57 343d
00000100: c892 91bc 3094 b4bd 823e aa3d f445 13bd
00000110: b2d8 acbd 4d1b fe3d 1f5a ed3d 0e67 323b
00000120: f183 adbd b5f2 65bd 1aa2 dfbd cb6d aabd
00000130: 3c50 893b ce11 e23d bd59 85bd dea4 13be
00000140: b5ab b3bc 6a7e b9bc a96c dc3d bb2e 0dbe
00000150: bb0e a5bd eb94 9dbd 993b 01be 7bc2 01be
00000160: 8142 ad3c 84c1 20bc 7f11 023e f3c2 4dbd
00000170: 198f 56bd b8e2 0ebe 1056 d3bc 230b 8e3d
00000180: a47b 28be 79c0 043e 4a8b 093d 796d fe3c
00000190: 3aec 12be 055c d53c 1cd6 83bc 00bb 033e
000001a0: 416a be3a ed42 e63d 836d a93d cb41 5b3c
000001b0: 9758 5b3d deb6 3dbd 285e 0d3e 746d 0d3e
000001c0: f24f c9bd ad73 113e 223f b93d a67f 2535
000001d0: fa88 d43d 12fe 9cbb 1b8a aabd d497 16be
000001e0: e2b5 14be e178 bebd 9271 f83d 433d 063e
000001f0: a49a b6bd fee8 92bc 8162 003d dbd5 43bd
00000200: 62d2 373b 9e6b bbbd 0db3 5e3d d8dd 1a3e
00000210: 3f88 b33d 231a b2bc 7aff cd3c 77c9 073e
00000220: 2402 873d a49b 973d 43c8 b6bd 7884 d8bd
00000230: 653f 923d a338 02be 5009 d2bd 4eb4 a4bd
00000240: 4d8f 0bbd b3be 893d 2e46 683c f836 14be
00000250: bf6d 38bc 6111 e4bd

bias_hh_l0 f4 [150]
0.13234784 0.043782473 -0.07451063 -0.12172574 0.10376129 -0.078193106 0.07860869 -0.00984908
0.11866201 0.06482017 -0.0393168 -0.031302273 -0.010270323 -0.07660083 -0.0140197845 0.101289004
-0.033547122 -0.060271908 -0.016360868 0.054241244 0.0527971 0.12899797 -0.089952044 -0.089136355
-0.08070927 -0.060386986 -0.02540199 0.15387222 0.011191956 0.08891095 -0.0025780716 0.11757475
0.062059477 0.056048304 0.04753872 0.017432055 0.08117041 -0.0498781 0.1177222 -0.0029346675
0.06552052 0.1135274 0.0020047529 0.13228673 -0.11280984 0.17709418 -0.119721554 -0.031455748
-0.070592046 -0.13339381 0.0049687196 -0.07799927 -0.098904915 -0.03281992 -0.16717961 0.08532821
0.014211156 0.109806925 0.046840336 -0.070229724 -0.0088636065 -0.044974424 -0.020266006 -0.01424045
-0.109337084 -0.0035723238 0.08109188 0.0254141 0.03366173 -0.05134232 -0.16067022 -0.13666815
0.048381634 0.06294434 -0.08972877 0.037524518 0.080537 0.058641348 -0.07039811 0.046212867
0.097551115 -0.08022663 0.12188167 0.0043087415 0.12506229 -0.023244435 -0.055923425 0.009284113
-0.1263002 0.03492621 0.087825395 0.013925733 0.048740927 0.08259221 -0.093442075 0.100417934
-0.09957905 -0.09192474 -0.12590714 -0.14521335 -0.14171901 0.13663214 -0.030226232 0.11932524
-0.023262994 -0.022418274 0.045567065 -0.07832805 -0.045849063 -0.10522689 -0.08594997 0.0530548
-0.13155895 0.14136787 -0.0241464 -0.13639964 0.12361707 -0.04864708 0.108187705 -0.024839621
-0.07463162 0.12878928 0.049551263 -0.07012855 0.040479254 0.010823307 -0.034586985 0.15129581
-0.0010535761 0.053278863 0.12083189 -0.045515817 0.014932879 -0.093268566 0.054477856 0.11955503
0.069867834 -0.027513936 -0.027870553 0.11821449 0.027841218 0.025249986 -0.09360985 0.13870023
0.09150472 0.11811486 -0.112718746 -0.09537408 0.10208042 0.07246484
00000000: 3186 073e 4055 333d 0799 98bd 584b f9bd
00000010: cd80 d43d b523 a0bd 98fd a03d 095e 21bc
00000020: 1105 f33d 70c0 843d a70a 21bd d036 00bd
00000030: db44 28bc e5e0 9cbd 3db3 65bc 9c70 cf3d
00000040: b568 09bd addf 76bd 3a07 86bc 112c 5e3d
00000050: c641 583d 0b18 043e c738 b8bd 1f8d b6bd
00000060: e74a a5bd 5858 77bd d617 d0bc ae90 1d3e
00000070: 775e 373c f216 b63d ddf4 28bb 08cb f03d
00000080: 1432 7e3d e892 653d f6b7 423d abcd 8e3c
00000090: ac3c a63d fb4c 4cbd 5618 f13d 8d53 40bb
000000a0: 9f2f 863d 0e81 e83d 2c62 033b 2c76 073e
000000b0: d808 e7bd 2d58 353e 9330 f5bd bed7 00bd
000000c0: 9092 90bd 6398 08be a4d0 a23b 15be 9fbd
000000d0: a98e cabd 2e6e 06bd 2231 2bbe 8ec0 ae3d
000000e0: e9d5 683c 74e2 e03d a7db 3f3d 9ad4 8fbd
000000f0: a938 11bc 1a37 38bd e504 a6bc c750 69bc
00000100: 1fec dfbd a61d 6abb 8013 a63d 3b31 d03c
00000110: e2e0 093d 534c 52bd bc86 24be bcf2 0bbe
00000120: d22b 463d f6e8 803d b8c3 b7bd 4fb3 193d
00000130: 95f0 a43d e931 703d e22c 90bd b449 3d3d
00000140: e1c8 c73d dc4d a4bd 199d f93d 5830 8d3b
00000150: 5410 003e 1d6b bebc f60f 65bd 641c 183c
00000160: d754 01be c90e 0f3d cddd b33d c228 643c
00000170: 91a4 473d 1b26 a93d 8f5e bfbd eba7 cd3d
00000180: 1af0 cbbd 0a43 bcbd cded 00be cfb2 14be
00000190: ca1e 11be 4ce9 0b3e 019d f7bc cb60 f43d
000001a0: 0992 bebc 87a6 b7bc 88a4 3a3d 756a a0bd
000001b0: 3acc 3bbd 3281 d7bd 8a06 b0bd fd4f 593d
000001c0: 64b7 06be bdc2 103e acce c5bc 59ac 0bbe
000001d0: f22a fd3d 2942 47bd 8491 dd3d 767c cbbc
000001e0: 76d8 98bd 56e1 033e 44f6 4a3d 8f9f 8fbd
000001f0: 93cd 253d 3d54 313c 15ab 0dbd 4aed 1a3e
00000200: 2618 8aba f03a 5a3d b676 f73d cb6e 3abd
00000210: 09a9 743c 9703 bfbd 2c24 5f3d 44d9 f43d
00000220: de16 8f3d e864 e1bc c950 e4bc 701a f23d
00000230: 4413 e43c 0fd9 ce3c 85b6 bfbd 6f07 0e3e
00000240: d466 bb3d 34e6 f13d 16d9 e6bd 7c53 c3bd
00000250: 8a0f d13d 7268 943d

weight_ih_l0 f4 [150, 5]
-0.016209735 -0.07153979 0.0936536 0.03988757 0.062419645 0.08383528 -0.101907045 0.14582893
-0.057925045 0.10441296 0.0994372 -0.144102 -0.14938043 -0.058703292 -0.1382972 0.03604699
0.04104915 0.10455276 -0.089138776 -0.01957669 0.04332745 0.020687098 -0.115992546 0.059380334
-0.07168324 0.11487591 -0.06759867 -0.030491706 -0.07328466 -0.0413046 0.024160687 0.020597696
0.015062681 0.12649323 -0.13202521 -0.09838791 0.04207923 -0.09571725 0.016684368 -0.1246785
-0.050913494 0.06849226 0.08909101 -0.092567906 0.080991216 -0.14023475 0.038411077 0.06958454
-0.065090716 -0.1381943 0.05885849 0.033698164 0.0032866965 0.104253255 -0.028041577 -0.1355064
0.040754132 0.047057394 -0.0008639461 0.14265336 -0.10161477 -0.08763183 -0.10356389 0.0062683113
0.07467802 0.110061 -0.12000192 -0.11384635 0.03407265 -0.057122584 -0.11868561 0.123637244
0.049384795 -0.020831542 0.028301489 -0.09112286 -0.15038002 0.036754105 -0.043698635 0.0047249827
0.029209008 0.018199945 0.0055772415 0.158418 -0.1484602 0.15444246 -0.044700578 0.042207424
-0.098988876 0.11549803 0.10097052 0.06709749 -0.007047241 -0.012365981 -0.0024998833 0.059974566
0.03194869 0.0819189 0.11726109 -0.10189193 -0.012560413 -0.102029644 -0.026873872 0.11578923
0.045234833 0.016224748 -0.09777273 -0.039342456 0.17109396 -0.14838496 0.12454057 0.004048025
-0.07775962 -0.08951829 0.05103514 0.0033233394 -0.12565184 0.051095754 0.10982934 0.07969054
0.09319365 0.10630357 0.024908697 0.014887548 -0.14826165 0.107175775 -0.005682087 0.08258683
0.07554313 0.08297291 0.044836894 0.030699754 0.027045723 0.1296952 -0.053553943 0.03712619
-0.0033747097 -0.06738143 0.10846108 -0.08226663 -0.0973686 0.12041799 0.1330501 0.042686082
-0.042966112 0.021796726 0.05841115 0.06096762 0.13417311 -0.030354775 -0.072798245 0.075668775
0.10927783 0.07006108 0.1456855 0.0073297564 -0.14200327 -0.048399527 0.06259867 -0.10127914
0.023262449 0.10370479 0.14829323 0.040014334 -0.007597456 -0.0968958 -0.016460083 0.036228474
0.07119136 -0.029308697 0.064166754 -0.1066182 -0.15266642 -0.1078229 0.06636686 -0.108664975
-0.106043845 -0.13901919 -0.11968063 -0.11057123 -0.10709959 -0.056605123 -0.12884516 -0.082931496
-0.123424344 -0.051486067 -0.019235544 -0.031839445 -0.09750588 -0.1301009 -0.030223606 0.08643753
-0.04542899 -0.15616508 0.0034353684 0.039002653 -0.06738188 0.0866001 0.050727315 0.006506126
-0.047380596 0.0857958 0.06311368 -0.008595114 -0.09543448 0.037914664 -0.113820314 0.097089924
0.08458137 0.104856454 0.037519988 -0.060484685 0.118254736 0.06929117 -0.06848353 0.08304202
0.11909328 0.0023854284 0.0009092346 -0.09752745 0.09384823 -0.055425063 -0.11698238 0.019250952
-0.01248367 0.035905622 -0.1158569 -0.09696737 0.12909332 0.13203834 0.10661479 -0.01163827
-0.091182075 -0.026169656 0.095215224 0.10463651 -0.09568855 0.035950642 0.17330211 -0.11857584
0.02242837 0.018069686 0.052914895 -0.11499684 -0.032788478 -0.04569239 0.06565693 -0.01882722
0.07352486 0.0054003904 0.08744243 -0.02716321 -0.107216045 0.101348035 -0.079682484 0.0933736
00000000: 47ca 84bc 7483 92bd 75cd bf3d 2661 233d
00000010: beab 7f3d d5b1 ab3d a4b4 d0bd 2e54 153e
00000020: d042 6dbd 76d6 d53d bba5 cb3d 7a8f 13be
00000030: 2ff7 18be dd72 70bd c89d 0dbe 02a6 133d
00000040: 2723 283d c21f d63d 648e b6bd 4b5f a0bc
00000050: 2078 313d fd77 a93c 808d edbd cb38 733d
00000060: aace 92bd 1044 eb3d 2c71 8abd bec9 f9bc
00000070: 4516 96bd 032f 29bd a2ec c53c 80bc a83c
00000080: 77c9 763c 7187 013e 9e31 07be 9a7f c9bd
00000090: 455b 2c3d 6807 c4bd a8ad 883c 7157 ffbd
000000a0: ab8a 50bd ac45 8c3d 5975 b63d 3e94 bdbd
000000b0: b9de a53d b399 0fbe ef54 1d3d 5782 8e3d
000000c0: 484e 85bd ce82 0dbe 9a15 713d 1607 0a3d
000000d0: 9e65 573b bb82 d53d 73b7 e5bc 31c2 0abe
000000e0: ceed 263d 41bf 403d 717a 62ba b913 123e
000000f0: 681b d0bd 5178 b3bd 4e19 d4bd 6866 cd3b
00000100: caf0 983d a967 e13d 91c3 f5bd 4628 e9bd
00000110: c38f 0b3d 5ff9 69bd 7111 f3bd 8635 fd3d
00000120: b647 4a3d e9a6 aabc 86d8 e73c 9f9e babd
00000130: 38fd 19be 798b 163d 57fd 32bd 07d4 9a3b
00000140: bb47 ef3c 0d18 953c 4bc1 b63b 5438 223e
00000150: f305 18be 2a26 1e3e f417 37bd b1e1 2c3d
00000160: aeba cabd 3b8a ec3d a2c9 ce3d 696a 893d
00000170: 8bec e6bb af9a 4abc 15d5 23bb e4a7 753d
00000180: a1dc 023d 19c5 a73d 9526 f03d b7ac d0bd
00000190: 31ca 4dbc ebf4 d0bd 9826 dcbc e722 ed3d
000001a0: 2948 393d c3e9 843c 123d c8bd 8e25 21bd
000001b0: 4133 2f3e 3af2 17be 200f ff3d 4ba5 843b
000001c0: 7040 9fbd 5d55 b7bd 390a 513d 62cc 593b
000001d0: e0aa 00be c849 513d 34ee e03d cb34 a33d
000001e0: 50dc be3d b0b5 d93d 530d cc3c e7ea 733c
000001f0: e7d1 17be f97e db3d cd30 babb 4923 a93d
00000200: 5bb6 9a3d b3ed a93d e4a6 373d 0d7e fb3c
00000210: fe8e dd3c d2ce 043e 615b 5bbd a211 183d
00000220: 3c2a 5dbb 46ff 89bd d820 de3d 687b a8bd
00000230: 3069 c7bd b59d f63d 493e 083e 9ad7 2e3d
00000240: 3cfd 2fbd 0c8f b23c 8840 6f3d 2fb9 793d
00000250: ad64 093e 94aa f8bc 3f17 95bd 3bf8 9a3d
00000260: 0ecd df3d 2f7c 8f3d 942e 153e 742e f03b
00000270: 4e69 11be 953e 46bd bb33 803d 706b cfbd
00000280: e490 be3c 2d63 d43d 2eda 173e 12e6 233d
00000290: 15f4 f8bb 4e71 c6bd 4cd7 86bc 4f64 143d
000002a0: c7cc 913d cb18 f0bc dc69 833d a55a dabd
000002b0: 9654 1cbe 41d2 dcbd 59eb 873d be8b debd
000002c0: 842d d9bd 0c5b 0ebe 1e1b f5bd 2b73 e2bd
000002d0: 0857 dbbd c6da 67bd fcef 03be fdd7 a9bd
000002e0: e7c5 fcbd 0ee3 52bd dc93 9dbc 146a 02bd
000002f0: 2ab1 c7bd 2c39 05be 7f97 f7bc 2906 b13d
00000300: c013 3abd bde9 1fbe eb23 613b 3fc1 1f3d
00000310: 83ff 89bd 655b b13d 72c7 4f3d 5731 d53b
00000320: 2812 42bd b5b5 af3d bf41 813d 85d2 0cbc
00000330: 2773 c3bd 684c 1b3d a01a e9bd 15d7 c63d
00000340: ff38 ad3d fbbe d63d 8fae 193d cabe 77bd
00000350: 8a2f f23d 87e8 8d3d 1841 8cbd ef11 aa3d
00000360: 2de7 f33d d954 1c3b b359 6e3a 79bc c7bd
00000370: 8033 c03d 6405 63bd 7594 efbd 2cb4 9d3c
00000380: 4f88 4cbc c611 133d 6246 edbd d496 c6bd
00000390: 0a31 043e 0f35 073e db58 da3d 71ae 3ebc
000003a0: abbd babd bf61 d6bc 3300 c33d ab4b d63d
000003b0: 5cf8 c3bd fb40 133d 1c76 313e e4d7 f2bd
000003c0: b3bb b73c e106 943c 4abd 583d 7783 ebbd
000003d0: 364d 06bd f227 3bbd 2477 863d 8b3b 9abc
000003e0: 3494 963d c2f5 b03b 0415 b33d 6185 debc
000003f0: 1694 dbbd 8f8f cf3d 9230 a3bd a83a bf3d

weight_hh_l0 f4 [150, 50]
-0.10947396 0.097804196 0.09843664 0.049518157 0.07456189 0.03584605 0.06275099 -0.065213375
0.18417613 -0.14303137 0.04042328 -0.0038633351 -0.015686097 0.091330685 -0.1110078 -0.038266838
-0.040602744 0.1277199 -0.06338408 -0.004143239 0.11807387 -0.043970827 0.11802632 0.047902778
0.07501249 -0.044677347 -0.13155694 -0.038826726 -0.1612124 0.049718235 0.16490783 0.001928636
-0.08059707 0.01593711 0.17206201 -0.09659045 0.013076635 -0.012420472 -0.073501006 -0.023881642
0.0066878754 -0.10587733 0.15747584 0.065805286 -0.030363088 -0.011139311 0.00549138 -0.118678525
-0.08636213 0.11467173 -0.11392167 -0.084676996 0.023068294 -0.06425994 0.11134582 0.0018462165
-0.1591234 0.051077973 -0.010919955 -0.12480694 -0.052111812 -0.049137145 0.039389193 -0.09968912
-0.06452074 0.016378352 -0.02630317 -0.110081226 0.094847634 -0.03876092 0.061114453 0.078474306
0.087096594 -0.06052889 -0.14201482 0.020613594 0.081741124 -0.058022607 0.054839253 -0.06979856
0.091619425 0.046271443 0.00747399 -0.017985629 0.09281844 -0.14693154 -0.03285449 -0.17002073
0.032847393 -0.08562811 0.010109861 0.103840604 -0.08113717 0.051661674 -0.061840825 -0.11062171
0.16214459 0.09351743 -0.013638416 0.036681224 0.043361545 0.15725935 0.03913397 -0.13677733
-0.16194502 -0.10879588 -0.15814972 -0.025234248 0.018007893 -0.07942497 -0.051432524 0.010367603
0.07360906 0.052683096 -0.14829212 -0.08923911 0.040609844 -0.13274692 0.08312392 -0.020157468
-0.019209389 -0.11588831 0.017525883 -0.070368 0.062379923 -0.14032324 -0.13051887 -0.09255571
-0.017604373 -0.07416265 0.11896358 0.03858826 0.06317111 -0.01836155 -0.11289935 0.04364534
-0.13937284 0.093923464 -0.10885027 0.12942204 -0.034113668 0.04097793 -0.0005558727 0.020216448
0.09789093 -0.085821375 -0.028119722 0.0900493 -0.082014464 0.05035126 -0.097450145 0.038858913
-0.100845054 0.042141404 0.05858748 -0.007092953 0.035373747 -0.10474067 0.038902596 0.103579625
0.03164371 0.052957963 0.06005382 0.0773221 0.09117946 -0.031928338 0.051681265 -0.13780405
0.08021324 -0.029954351 0.012250455 -0.019531075 -0.08105041 0.046006482 -0.04734732 0.034975875
0.09702446 0.07344017 -0.06762476 0.03307594 0.13597888 0.0033795892 -0.011810732 0.058871746
0.07842374 0.049029104 0.068965666 -0.02745374 -0.0015267613 -0.004962664 -0.06783108 0.06874145
0.13769493 0.10632168 -0.039695416 -0.01112097 -0.13360156 0.036156524 0.0070347185 0.027599825
-0.018515337 -0.07084523 -0.08919726 0.13072689 -0.07725576 0.022496222 -0.03147352 -0.008876687
0.06522331 0.09012196 -0.13105312 -0.07182877 -0.077199265 -0.03452996 -0.14511538 0.038072012
0.10644453 -0.046836287 0.15750684 0.064376034 0.0354467 -0.12119994 0.09961622 0.060730334
0.004953559 0.06425284 -0.1746102 -0.11386973 -0.00069055014 -0.16429822 -0.07015896 -0.057708997
0.036955796 0.07566728 0.0510416 -0.014638355 -0.16380796 -0.10110962 0.0029435046 -0.12153939
-0.030228868 -0.060244 -0.0070229857 -0.03400976 -0.120940074 0.08090434 0.09197035 -0.122733854
-0.04260682 0.05633855 0.041809205 -0.046492063 -0.038843792 -0.007591095 0.00036729715 -0.0856481
00000000: e233 e0bd 914d c83d 2699 c93d 8dd3 4a3d
00000010: e7b3 983d 4fd3 123d 9783 803d 978e 85bd
00000020: ab98 3c3e d176 12be e292 253d 0230 7dbb
00000030: 2180 80bc 950b bb3d 0f58 e3bd b0bd 1cbd
00000040: 104f 26bd 01c9 023e 83cf 81bd 02c4 87bb
00000050: b7d0 f13d c11a 34bd c9b7 f13d b435 443d
00000060: 26a0 993d 98ff 36bd ddb6 06be c608 1fbd
00000070: dd14 25be 59a5 4b3d 99dd 283e 49ca fc3a
00000080: 1410 a5bd 8b8e 823c 0631 303e 37d1 c5bd
00000090: 623f 563c 3c7f 4bbc b287 96bd 6fa3 c3bc
000000a0: f725 db3b 37d6 d8bd 5941 213e ecc4 863d
000000b0: 03bc f8bc a881 36bc 09f1 b33b ba0d f3bd
000000c0: a1de b0bd 03d9 ea3d c44f e9bd 226b adbd
000000d0: b8f9 bc3c b79a 83bd 4709 e43d bffc f13a
000000e0: 3ff1 22be 2337 513d 9ce9 32bc c89a ffbd
000000f0: 3273 55bd 0844 49bd 9056 213d cf29 ccbd
00000100: 7323 84bd e52b 863c bf79 d7bc 4472 e1bd
00000110: 7a3f c23d c5c3 1ebd 2653 7a3d 23b7 a03d
00000120: b35f b23d 24ed 77bd 556c 11be d7dd a83c
00000130: e467 a73d 1da9 6dbd 209f 603d 8cf2 8ebd
00000140: f7a2 bb3d 2087 3d3d 5fe8 f43b 9956 93bc
00000150: 9817 be3d 3975 16be 6e92 06bd ea19 2ebe
00000160: fd8a 063d ca5d afbd d5a3 253c 62aa d43d
00000170: 3f2b a6bd 319b 533d ce4c 7dbd a38d e2bd
00000180: 3b09 263e 1186 bf3d aa73 5fbc 0d3f 163d
00000190: e09b 313d 9808 213e f14a 203d 5b0f 0cbe
000001a0: ead4 25be 60d0 debd 00f2 21be 0eb8 cebc
000001b0: 4a85 933c 8fa9 a2bd e9aa 52bd e1dc 293c
000001c0: 59c0 963d 3bca 573d e4d9 17be ffc2 b6bd
000001d0: 8256 263d cfee 07be e03c aa3d 4621 a5bc
000001e0: 025d 9dbc da56 edbd 7192 8f3c 191d 90bd
000001f0: 1782 7f3d e5b0 0fbe bda6 05be d98d bdbd
00000200: 0c37 90bc 96e2 97bd 2da3 f33d b90e 1e3d
00000210: db5f 813d f66a 96bc c637 e7bd 75c5 323d
00000220: c1b7 0ebe f25a c03d e4ec debd 3687 043e
00000230: c6ba 0bbd 79d8 273d fcb7 11ba f79c a53c
00000240: 0a7b c83d 1ec3 afbd 555b e6bc c46b b83d
00000250: 33f7 a7bd 1f3d 4e3d f193 c7bd 862a 1f3d
00000260: da87 cebd 779c 2c3d 6df9 6f3d 016c e8bb
00000270: 10e4 103d 4782 d6bd 5458 1f3d 8e21 d43d
00000280: d69c 013d 73ea 583d fffa 753d 0d5b 9e3d
00000290: 4cbc ba3d 4ac7 02bd bcaf 533d 811c 0dbe
000002a0: d746 a43d d462 f5bc 22b6 483c a2ff 9fbc
000002b0: c2fd a5bd 4b71 3c3d 43ef 41bd dd42 0f3d
000002c0: c3b4 c63d cd67 963d da7e 8abd a37a 073d
000002d0: 0c3e 0b3e 197c 5d3b cd81 41bc 8023 713d
000002e0: a09c a03d bed2 483d df3d 8d3d aae6 e0bc
000002f0: 9c1d c8ba d89d a2bb 05eb 8abd 51c8 8c3d
00000300: e6ff 0c3e 2ebf d93d a997 22bd bb34 36bc
00000310: d9ce 08be dd18 143d 7f83 e63b 0719 e23c
00000320: 7aad 97bc 4e17 91bd 0ead b6bd 45dd 053e
00000330: 4538 9ebd ff49 b83c 61ea 00bd 866f 11bc
00000340: cc93 853d dd91 b83d ca32 06be f61a 93bd
00000350: a61a 9ebd 4a6f 0dbd 2099 14be 66f1 1b3d
00000360: 97ff d93d 68d7 3fbd 7949 213e 95d7 833d
00000370: 8f30 113d ad37 f8bd 9703 cc3d 5fc0 783d
00000380: 7751 a23b fe96 833d 04cd 32be 8834 e9bd
00000390: 0906 35ba cb3d 28be 80af 8fbd 4560 6cbd
000003a0: f65e 173d 72f7 9a3d ff10 513d b6d5 6fbc
000003b0: 46bd 27be 8f12 cfbd d0e7 403b a5e9 f8bd
000003c0: 88a2 f7bc 6ac2 76bd 1321 e6bb d14d 0bbd
000003d0: 6eaf f7bd 2db1 a53d f35a bc3d e35b fbbd
000003e0: 7d84 2ebd 40c3 663d 2140 2b3d 766e 3ebd
000003f0: ab1a 1fbd b8be f8bb ca91 c039 4568 afbd

bias_ih_l0 f4 [150]
-0.095609985 0.05280527 -0.09789052 -0.031128913 0.12616561 -0.07136605 -0.032743204 -0.11902681
0.07112879 -0.048063695 0.039211936 0.13101524 0.13562225 0.02319489 0.035237517 -0.10216739
-0.057598084 0.083251394 -0.05470165 0.059750285 -0.044013422 0.11982506 -0.056170315 0.13907234
-0.026524087 0.004290547 0.058875814 0.01865593 0.05026645 0.13146283 0.03571008 0.020237064
-0.049833085 0.03263774 0.095233135 0.091466025 -0.093741156 0.028210782 0.10295159 0.034501813
0.024535265 -0.0253848 -0.10997324 0.11909294 -0.08767659 0.014023253 0.1293767 0.11201202
-0.0004990721 0.003560986 -0.107976004 0.08339948 0.059758753 -0.10235455 -0.049324915 0.13125367
-0.09375497 0.14329793 -0.11443558 0.11934143 -0.12086814 -0.14531998 0.023780191 -0.010332819
-0.020536372 0.120953634 -0.004251157 -0.011716905 -0.020113567 0.03370487 0.0989852 0.073219985
0.10096597 0.10175164 0.06796794 -0.01173146 -0.1313527 -0.029872704 -0.14962682 -0.07478359
-0.096393526 -0.11956576 -0.06898766 0.09786822 -0.06518424 0.133788 0.04777788 0.007790198
0.0914767 0.08990761 -0.06987214 -0.11850225 -0.041431222 -0.07373609 0.11107775 0.018637257
0.098080575 -0.02804577 -0.0645026 -0.051895026 -0.1549097 0.067724116 0.09984596 0.00676709
-0.026305811 -0.106785804 -0.13551123 0.039828885 0.060626533 -0.09317153 -0.024269763 0.059643846
0.1158871 0.104596846 -0.13224994 -0.14142407 0.08889122 -0.08569363 -0.006753041 -0.15152164
-0.025898695 -0.07468311 -0.12935023 -0.10580246 -0.055587765 -0.10533505 -0.12813246 -0.08446837
-0.10152174 0.0110618165 0.10401591 -0.02848251 0.09951812 0.10895823 -0.10854238 -0.053951737
-0.040251642 -0.04816366 -0.0038325952 0.01801871 -0.017673383 -0.025422057 0.14015505 0.118477486
-0.076655135 -0.13607307 0.09465915 -0.0746046 -0.12359518 0.11179662
00000000: 2bcf c3bd 574a 583d d37a c8bd 1002 ffbc
00000010: 8f31 013e 5d28 92bd bd1d 06bd 54c4 f3bd
00000020: f9ab 913d 70de 44bd b29c 203d dc28 063e
00000030: 8fe0 0a3e 3603 be3c 3755 103d 233d d1bd
00000040: f8eb 6bbd b57f aa3d d60e 60bd b7bc 743d
00000050: 6b47 34bd d766 f53d d812 66bd fb68 0e3e
00000060: 0b49 d9bc b897 8c3b c427 713d 52d4 983c
00000070: 31e4 4d3d 319e 063e bc44 123d 33c8 a53c
00000080: c71d 4cbd 27af 053d 9709 c33d 8a52 bb3d
00000090: 5dfb bfbd 4c1a e73c 49d8 d23d c651 0d3d
000000a0: 2efe c83c c9f3 cfbc a639 e1bd 00e7 f33d
000000b0: c98f b3bd c9c1 653c 537b 043e 8f66 e53d
000000c0: 29d4 02ba 6e5f 693b 8622 ddbd 59cd aa3d
000000d0: 98c5 743d 439f d1bd ec08 4abd 5d67 063e
000000e0: 9b02 c0bd b1bc 123e 345d eabd 4869 f43d
000000f0: b789 f7bd c3ce 14be adce c23c fc4a 29bc
00000100: e53b a8bc 8ab6 f73d 4a4d 8bbb 43f8 3fbc
00000110: 35c5 a4bc 1e0e 0a3d c1b8 ca3d 5cf4 953d
00000120: 3fc7 ce3d 2a63 d03d c632 8b3d 4f35 40bc
00000130: 5281 06be 9ab7 f4bc c637 19be 2428 99bd
00000140: f869 c5bd e5de f4bd 6749 8dbd 226f c83d
00000150: 517f 85bd b9ff 083e bdb2 433d eb44 ff3b
00000160: 2358 bb3d 7b21 b83d 2019 8fbd 4fb1 f2bd
00000170: c9b3 29bd f202 97bd bb7c e33d 29ad 983c
00000180: 78de c83d 3ec0 e5bc f019 84bd e18f 54bd
00000190: a6a0 1ebe f1b2 8a3d 0a7c cc3d 77be dd3b
000001a0: 497f d7bc 84b2 dabd 75c3 0abe 9d23 233d
000001b0: 8753 783d b7d0 bebd 62d1 c6bc 1b4d 743d
000001c0: 3756 ed3d df36 d63d 876c 07be 79d1 10be
000001d0: 9a0c b63d 2480 afbd 9d48 ddbb 7d28 1bbe
000001e0: 8029 d4bc 75f3 98bd 6374 04be f6ae d8bd
000001f0: ffaf 63bd e7b9 d7bd 2835 03be c1fd acbd
00000200: a1ea cfbd 9f3c 353c 4b06 d53d 2754 e9bc
00000210: 28d0 cb3d 7e25 df3d 784b debd 7ffc 5cbd
00000220: e8de 24bd 4247 45bd 472c 7bbb f99b 933c
00000230: c5c7 90bc eb41 d0bc ce84 0f3e 53a4 f23d
00000240: 5efd 9cbd bd56 0bbe a8dc c13d 4cca 98bd
00000250: 781f fdbd a0f5 e43d

bias_hh_l0 f4 [150]
0.045244932 0.1557097 0.16669151 0.07760413 0.10611054 -0.12674117 0.10338167 -0.1329439
0.10185242 -0.09247394 -0.051729996 -0.05604038 0.12090893 -0.079420716 0.09773148 -0.06488561
0.029704262 -0.041356906 -0.09107842 -0.033969905 -0.02704077 -0.0610152 0.019858714 -0.057244185
-0.07777965 -0.11025024 -0.10768731 0.09417253 -0.08347279 -0.023264265 0.073179096 -0.030448237
-0.04462647 -0.013761939 -0.025586296 -0.11671932 -0.11543687 0.04555843 -0.026594454 0.13702296
0.049327683 -0.06388045 0.08068404 -0.00060710055 -0.12903835 -0.08374732 0.14428402 -0.06710639
0.16554837 0.09685942 0.043517374 -0.016675133 0.038480155 0.038654003 3.5778237e-05 -0.11259929
-0.11607654 -0.06742957 0.06769475 -0.027109731 -0.1395449 0.0978399 -0.05746431 0.12584345
0.07308754 -0.14434096 -0.109064475 0.040910818 0.12970047 0.014911967 -0.08807408 -0.00073087355
-0.13070203 -0.05368276 0.1047652 -0.071088955 0.06176185 0.09233006 -0.09801104 0.1143249
0.054364726 -0.11739442 -0.08632856 -0.09743204 0.0892019 -0.1314507 -0.14846507 0.10123264
-0.13338567 -0.011461281 -0.086089574 0.036124624 0.08591215 -0.092906564 0.02835732 0.10614929
-0.063427344 0.05699822 -0.08917512 0.0026301725 -0.06297892 0.1528825 0.0856406 0.028843261
0.06194877 -0.107706904 -0.12996882 -0.13216278 -0.053718783 -0.09929692 -0.07890114 0.1347249
-0.07932461 -0.06235594 -0.08589648 0.053374346 0.1465048 -0.053498644 0.10903752 0.03264314
-0.023302197 0.024046624 -0.0011110234 -0.17536832 0.08205634 0.05267095 0.0049451524 0.07611527
0.032896895 -0.06784265 0.11177773 0.13999173 0.023975037 0.10973936 0.06123997 -0.04280841
0.05913442 -0.0024562383 0.1092054 0.09816109 0.12595525 -0.08989867 -0.049829938 0.11057744
0.042422354 0.051778708 0.037306502 -0.17261381 -0.15999828 0.13319471
00000000: c052 393d 5d72 1f3e 2eb1 2a3e eaee 9e3d
00000010: 7c50 d93d 70c8 01be c5b9 d33d 7222 08be
00000020: 0098 d03d fa62 bdbd d5e2 53bd 998a 65bd
00000030: 1a9f f73d 54a7 a2bd 7127 c83d bfe2 84bd
00000040: 5a56 f33c dc65 29bd 5387 babd 0724 0bbd
00000050: 9b84 ddbc 13eb 79bd beae a23c e178 6abd
00000060: f04a 9fbd e1ca e1bd 2a8b dcbd 87dd c03d
00000070: c8f3 aabd b394 bebc ecde 953d 956e f9bc
00000080: 3fca 36bd c179 61bc 5a9a d1bc 8a0a efbd
00000090: 2a6a ecbd 7a9b 3a3d 9ddc d9bc bf4f 0c3e
000000a0: d30b 4a3d c1d3 82bd ad3d a53d d425 1fba
000000b0: a122 04be b783 abbd 31bf 133e 136f 89bd
000000c0: 8385 293e 3b5e c63d 463f 323d 4a9a 88bc
000000d0: 5e9d 1d3d a953 1e3d 9710 1638 759a e6bd
000000e0: 89b9 edbd 8418 8abd 8ca3 8a3d 3a15 debc
000000f0: dce4 0ebe 4960 c83d b25f 6bbd 1bdd 003e
00000100: ecae 953d 1ece 13be 325d dfbd 1a92 273d
00000110: 33d0 043e 5351 743c 2f60 b4bd 1898 3fba
00000120: c1d6 05be 74e2 5bbd 238f d63d 1697 91bd
00000130: fef9 7c3d 8b17 bd3d 03ba c8bd 2c23 ea3d
00000140: 8cad 5e3d 7c6c f0bd 07cd b0bd 738a c7bd
00000150: 7caf b63d 039b 06be 3a07 18be 0f53 cf3d
00000160: 4196 08be 19c8 3bbc bb4f b0bd 6af7 133d
00000170: b6f2 af3d cc45 bebd 9c4d e83c cd64 d93d
00000180: 32e6 81bd f776 693d 72a1 b6bd f95e 2c3b
00000190: 18fb 80bd 3b8d 1c3e 5764 af3d b448 ec3c
000001a0: febd 7d3d 7095 dcbd 8c16 05be ae55 07be
000001b0: 3a08 5cbd 2f5c cbbd ec96 a1bd 53f5 093e
000001c0: f174 a2bd f168 7fbd 7eea afbd 0f9f 5a3d
000001d0: 5b05 163e 6521 5bbd 104f df3d d0b4 053d
000001e0: 40e4 bebc 6dfd c43c c29f 91ba c193 33be
000001f0: 280d a83d 7ebd 573d f20a a23b 53e2 9b3d
00000200: e5be 063d 16f1 8abd b9eb e43d fe59 0f3e
00000210: 4c67 c43c 08bf e03d c3d6 7a3d df57 2fbd
00000220: ef36 723d d7f8 20bb 15a7 df3d ae08 c93d
00000230: 6afa 003e cb1c b8bd 7a1a 4cbd 6d76 e23d
00000240: 10c3 2d3d e915 543d b4ce 183d adc1 30be
00000250: 97d6 23be 3264 083e

weight_ih_l0 f4 [150, 300]
0.012977421 0.01403817 0.08763607 -0.013933744 0.06857032 0.14367147 0.046753343 0.10068337
0.098696254 -0.003983093 -0.048040606 0.1364265 -0.096095614 0.093151234 -0.058740016 -0.14049055
-0.065657675 0.007684685 0.0057239216 -0.09643519 -0.1460217 -0.11727016 0.1204492 0.01960117
-0.054377787 -0.017205203 0.06387331 -0.02098632 0.106685646 0.056001037 -0.034553304 0.1415656
-0.048950095 0.13039011 -0.074592665 -0.10553422 0.07573119 -0.0022689316 0.053881887 0.05833466
0.007950809 0.09478972 0.0059765736 0.10155764 0.1353025 0.0413428 0.09337201 0.022966886
0.12115177 -0.14784026 -0.11873642 -0.12710457 0.090538576 -0.044416163 0.040534236 0.025189115
0.022293987 -0.06637873 -0.05237622 -0.12946707 0.0839083 0.121213146 -0.027469981 -0.07805724
0.12843026 -0.0418184 0.05140882 0.045388922 -0.081116535 0.03808201 -0.014472887 -0.09397683
0.06724972 -0.113026775 0.08879891 0.03431615 0.11530088 -0.054875445 0.09322721 0.10472166
0.11593431 0.003989399 -0.09919639 -0.020931693 0.063629396 -0.0054371534 0.020964345 -0.047645822
-0.017374024 -0.035763673 0.040651836 -0.014275809 -0.14980751 0.1112341 0.103450455 0.04749201
0.02181653 -0.055934522 0.012251976 -0.030711893 0.13873856 0.13267668 -0.16749479 -0.0040480327
0.12738885 0.10385747 -0.043366455 -0.021308789 0.050097127 -0.08625263 0.016320938 -0.12828323
-0.13540915 -0.0106988475 -0.09641749 -0.055368368 0.040369082 -0.0034060199 -0.021188991 -0.11585335
0.058792148 -0.08942811 -0.1545319 0.06318767 0.09245343 -0.090142906 -0.021205949 -0.03861037
0.07367194 -0.023220055 -0.12742803 -0.006312929 0.064573884 0.06124303 -0.03186699 0.13554677
-0.032121673 0.07362503 -0.11395246 -0.063108884 -0.14458033 -0.10830036 -0.07579651 0.10926069
-0.05114319 0.11602507 -0.060508072 0.019504491 0.13212267 -0.1073934 -0.027659113 -0.020097826
-0.11315846 -0.073635794 0.072149806 -0.07545129 -0.114616334 -0.048861295 0.047787484 -0.0260245
-0.16590805 0.1306539 0.1038157 0.054134417 -0.14652418 -0.1424512 -0.029726783 -0.14340664
0.14610277 -0.061092015 0.11112798 0.062159173 0.08989356 -0.023671495 0.08932737 -0.05486131
-0.108598456 -0.07765971 0.06489792 0.11562385 0.10628044 -0.04520309 -0.1335115 0.12818816
-0.12536517 -0.011104139 -0.046235535 0.055236533 -0.113149 -0.10292501 -0.024493538 -0.10581521
0.08753289 0.06794947 -0.12253706 0.0137421265 -0.087226346 -0.008964175 0.13458925 -0.08407522
-0.1565898 0.0869452 -0.059193645 -0.04647265 0.061399806 0.051556263 0.033931777 0.18281683
-0.12185054 0.018615391 -0.009978073 -0.08122387 -0.015327018 -0.15027207 -0.12853366 -0.0015810308
0.15399154 -0.14475162 -0.06994448 0.009630056 0.137988 -0.0072677177 0.08515329 0.0648405
-0.008772951 -0.072433114 -0.10465474 0.10087104 -0.06675509 0.1449471 0.048710126 0.13399403
-0.057373274 0.08389761 -0.017973164 0.0012187758 -0.033231217 0.0005178128 0.10335487 0.11978233
0.09751949 -0.009208053 -0.13009353 0.02741056 -0.045743294 -0.006828881 -0.10612559 -0.0043271063
0.005216471 0.083738014 0.0676517 0.03598856 -0.07419873 -0.14895426 -0.09698929 0.10262295
00000000: 409f 543c 5a00 663c 8a7a b33d 5c4a 64bc
00000010: 996e 8c3d 9d1e 133e 6f80 3f3d 1533 ce3d
00000020: 4321 ca3d 9b84 82bb 3ac6 44bd 63b3 0b3e
00000030: c7cd c4bd 13c6 be3d 5f99 70bd c1dc 0fbe
00000040: 8877 86bd cfcf fb3b bc8f bb3b d07f c5bd
00000050: b686 15be 562b f0bd 12ae f63d a292 a03c
00000060: 3ebb 5ebd edf1 8cbc 03d0 823d 81eb abbc
00000070: 017e da3d 5861 653d c487 0dbd 93f6 103e
00000080: e57f 48bd fc84 053e 0ac4 98bd 5322 d8bd
00000090: f418 9b3d 5bb2 14bb 41b3 5c3d 53f0 6e3d
000000a0: 1c44 023c 1d21 c23d 22d7 c33b 74fd cf3d
000000b0: bd8c 0a3e 1157 293d d339 bf3d 0d25 bc3c
000000c0: 6b1e f83d 7063 17be 152c f3bd b327 02be
000000d0: 4a6c b93d b9ed 35bd 3a07 263d 6759 ce3c
000000e0: e1a1 b63c 92f1 87bd 7288 56bd 0493 04be
000000f0: 1dd8 ab3d 993e f83d ba08 e1bc 79dc 9fbd
00000100: 3983 033e c549 2bbd 0e92 523d bce9 393d
00000110: 6d20 a6bd e2fb 1b3d b01f 6dbc ed76 c0bd
00000120: 39ba 893d 957a e7bd 34dc b53d 178f 0c3d
00000130: de22 ec3d 13c5 60bd e8ed be3d 4f78 d63d
00000140: f86e ed3d 81b9 823b 7a27 cbbd f178 abbc
00000150: 2150 823d 262a b2bb 6bbd ab3c 4428 43bd
00000160: f853 8ebc ee7c 12bd 8a82 263d 15e5 69bc
00000170: 2467 19be b4ce e33d d5dd d33d fb86 423d
00000180: 94b8 b23c 991b 65bd 83bc 483c 8297 fbbc
00000190: 7b11 0e3e 65dc 073e c183 2bbe 5ca5 84bb
000001a0: 3972 023e 3ab3 d43d 06a1 31bd c58f aebc
000001b0: a532 4d3d 38a5 b0bd 7db3 853c ae5c 03be
000001c0: b2a8 0abe 384a 2fbc 8876 c5bd f1c9 62bd
000001d0: 0d5a 253d 8837 5fbb 8994 adbc 8544 edbd
000001e0: 09d0 703d 1626 b7bd 9c3d 1ebe 8a68 813d
000001f0: 3958 bd3d d89c b8bd 19b8 adbc e825 1ebd
00000200: 50e1 963d fc37 bebc 7e7c 02be b0dc cebb
00000210: 503f 843d f9d9 7a3d f686 02bd c6cc 0a3e
00000220: 0492 03bd b8c8 963d e85f e9bd 3b3f 81bd
00000230: de0c 14be 94cc ddbd 333b 9bbd 12c4 df3d
00000240: 867b 51bd 8d9e ed3d 50d7 77bd e2c7 9f3c
00000250: 2a4b 073e 12f1 dbbd 5d95 e2bc 32a4 a4bc
00000260: 9fbf e7bd 5dce 96bd 47c3 933d 3586 9abd
00000270: f8bb eabd c822 48bd cfbc 433d 5531 d5bc
00000280: cde3 29be 23ca 053e 539d d43d 0dbc 5d3d
00000290: 6f0a 16be bade 11be 9585 f3bc 31d9 12be
000002a0: f79b 153e 9f3b 7abd 1197 e33d 9e9a 7e3d
000002b0: 1d1a b83d b9ea c1bc 45f1 b63d 41b6 60bd
000002c0: de68 debd 0e0c 9fbd 33e9 843d 32cc ec3d
000002d0: 8fa9 d93d e026 39bd 3db7 08be c243 033e
000002e0: ba5f 00be 22ee 35bc 7961 3dbd b43f 623d
000002f0: aaba e7bd 59ca d2bd aca6 c8bc a5b5 d8bd
00000300: 7244 b33d 1729 8b3d b6f4 fabd a826 613c
00000310: baa3 b2bd 7ade 12bc c4d1 093e a12f acbd
00000320: 1459 20be 5310 b23d 0975 72bd 1b5a 3ebd
00000330: 5d7e 7b3d a92c 533d 0cfc 0a3d 5634 3b3e
00000340: c78c f9bd 4e7f 983c 127b 23bc b358 a6bd
00000350: 2c1e 7bbc ece0 19be 549e 03be 973a cfba
00000360: f5af 1d3e c539 14be 0d3f 8fbd 62c7 1d3c
00000370: ba4c 0d3e 0926 eebb d964 ae3d 19cb 843d
00000380: 6cbc 0fbc d057 94bd 3955 d6bd 7a95 ce3d
00000390: e5b6 88bd 036d 143e 4584 473d bb35 093e
000003a0: 3d00 6bbd 83d2 ab3d 753c 93bc 54bf 9f3a
000003b0: 751d 08bd d4bd 073a b8ab d33d 7050 f53d
000003c0: 4cb8 c73d 60dd 16bc 3d37 05be 1c8c e03c
000003d0: 525d 3bbd cec4 dfbb 6058 d9bd 66ca 8dbb
000003e0: eeee aa3b d67e ab3d f98c 8a3d be68 133d
000003f0: 81f5 97bd 7787 18be 52a2 c6bd fb2b d23d
